model_param/model_param_best.pt (torch, 531358 bytes, 22 tensors)

module.enc_lstm.weight_ih_l0 f4 [400, 3]
00000000: f2b2 64bd f6b3 e2be 71e2 85bf 3161 20bd
00000010: eff4 50bc e984 eabe f30a 18be 726f 2cbe
00000020: bc49 8dba 4865 04be 7ea6 29bc ebd7 80be
00000030: 1373 7dbd d607 233e fadf f13d 3901 5e3d
00000040: a0e5 b4bd fab8 01bf 97bb 923d f668 30bd
00000050: 233a 39bf 86dc 12bd 9c1b b5bd f7c4 8bbe
00000060: 658e b8bc 3027 20bd 8c2d cfbd b59b a93d
00000070: cdec af3d c1e0 e23d a29e d3bc 8fc9 83bc
00000080: 6781 2e3e 6a9d 04be 93ec d2bc 46ec 923e
00000090: 9563 543c 0b74 f53a 16a0 43be edbb 12bf
000000a0: f791 acbd e842 10bf 23f8 d5bd 3ccd 893e
000000b0: 78f8 4dbe 228c 80be 572d 26be df7a 4ebf
000000c0: 9630 5a3d eb8e 1dbf c4cf ccbf 4be7 68bd
000000d0: 2300 273e 8488 edbd 419a 48bd c4d0 58be
000000e0: 8624 28bf b80e 28bd 3dc2 06bd 0e99 41bf
000000f0: 3705 6b3e 3bc4 65be cda3 92bd 166f 0fbe
00000100: 7ca1 b8bc 797a 96be 4daf 8dbd fcd1 683e
00000110: 2a3f 303f f3ea b23d 2b19 933e 1548 853f
00000120: 6bc1 9bbe ef3b 02be 672c 1dbf 7a89 c13d
00000130: 858a 37be ec7c aebe 67e0 853d fbfe 7dbc
00000140: 28ee 71be dfeb 02bb acce d53d cbde f0bf
00000150: b96f 86bc d91a b03b e713 3abf 82c0 3fbc
00000160: 0408 5a3d cc1d 84bd 9349 edbd eea6 5dbd
00000170: b744 b23e 5cc4 1ebd ce29 713d 3112 7cbd
00000180: 8780 92bd eb5a 2fbd 5fcf dc3b 8d6f aa3d
00000190: ccd8 75bc b471 00be 186c 7a3e befb ee3c
000001a0: d002 28bf 77b1 8fbf 1fae b73e 2bb8 d73b
000001b0: 2783 0c3e a015 c8bd 9b07 f7bd aa93 313e
000001c0: 5cff bfbd e601 f9be a35a 55be ad4a ea3c
000001d0: c83f 9c3e c131 e03d 9e89 21bc 18db 0bbf
000001e0: c4e7 553d dbbe 89bd ee55 ba3e 59f2 213e
000001f0: 5610 9ebd 3df1 343d cfb2 3c3e 67cf f63b
00000200: 7574 813f 664b d9be 1860 bfbe 1bb8 08c0
00000210: 066a 2ec1 a706 c7c1 88aa 7fc0 a778 24be
00000220: 0dea 9bbc 57c9 52bd 4a27 86bd 28f1 d8bd
00000230: a14e 0e3e 79a0 0abf 46f0 8c3e 2f4c f8be
00000240: 57f6 17be 6892 fbbc ad12 7fbd 1d77 37be
00000250: e102 87bc 56f9 823d 5166 84be 02ff e3bc
00000260: 0e2f 6bbf 516d 983e 5c42 aebd a220 20bf
00000270: 9c58 923d 711f dc3d e731 23bc a407 433e
00000280: 56f3 f5bd b8b9 903f 30cc ba3e 667f a7be
00000290: 8817 07be 7639 48bf 8dc1 f73c f553 38bf
000002a0: 0677 ed3d 4207 5c3e 3096 b53e 2b2f 953e
000002b0: 7cee 5dbe fdd3 023f 39a1 8a3d 2e35 e0bd
000002c0: 2841 863f 030d 40be 0581 94b9 cd12 a0be
000002d0: 9d6d 8abd ce3f 4bbd c680 113e 02b2 28be
000002e0: e6d9 9abc cf4e 89be a411 54be dc20 58be
000002f0: c527 5bbe 7657 cabb a7f3 6abd 5cff 933f
00000300: 4c2d 0ebd 82b6 7ebc 9223 7fbe 0fb0 09bd
00000310: 62ca b1bd eb56 c1be 0d57 80be e50f c5bd
00000320: a108 c0be 15d4 2bbe 7eea 12be c04e 9dbd
00000330: 5036 773d 9906 d33d e543 a33d 1631 e23d
00000340: ae31 bcbd 41b1 a3bf 5e41 adbe 455b acbd
00000350: cffc dc3f 9562 66be 2d29 8cbd 9c9d 25bf
00000360: ae57 483e e516 7fbe 2c87 aabd 60ae e4be
00000370: fb69 5c3f 3da5 be3e a275 293d 6ad7 1bbb
00000380: 7f63 a33d f922 59bd 6d74 12bf d4ec 94bf
00000390: 5734 893d 4e61 6a3a c489 8d3f 51fe 1bbe
000003a0: 5adc 1b3e 7391 98bd 8730 7dbd 96ea 29be
000003b0: 6dd5 52bd 6fb3 093d a2c0 973d 6b9c c23e
000003c0: a9e0 94bd 6b1d fc3d bf44 1f3f f4c3 eabd
000003d0: 5456 34be ebd9 9c3e 62c4 553c 0c18 5139
000003e0: 138f afbe 4944 e8bb 1abb d03c adc7 883e
000003f0: 864c 503e 7b6a 9bbd 63bb c0bd 1c29 55be
-0.055834718 -0.44277924 -1.045973 -0.03915519 -0.012753709 -0.45804527 -0.14847927 -0.16839388
-0.0010779421 -0.1292926 -0.010354636 -0.25164732 -0.06187732 0.15920958 0.11810298 0.054200385
-0.0883286 -0.50672877 0.07164686 -0.04306885 -0.72354335 -0.03585484 -0.08843157 -0.2729871
-0.022528837 -0.039099872 -0.10116109 0.08281652 0.08590088 0.11078025 -0.025832478 -0.016087322
0.1704155 -0.12950674 -0.025747573 0.28695887 0.012963195 0.00187266 -0.19104037 -0.57318
-0.08426278 -0.5635209 -0.10447719 0.26914394 -0.20114315 -0.25106913 -0.16228233 -0.80656236
0.05326899 -0.615462 -1.6000905 -0.056861203 0.16308646 -0.11598304 -0.048975233 -0.21173388
-0.6568073 -0.041029662 -0.032900084 -0.7562417 0.22951208 -0.22438137 -0.07160149 -0.1400722
-0.02253794 -0.29390314 -0.069182016 0.22736353 0.6884638 0.08736219 0.2873014 1.0412623
-0.30421004 -0.12718175 -0.6139588 0.0945005 -0.17923935 -0.34079683 0.06536942 -0.015502687
-0.23626006 -0.0019977016 0.1043981 -1.8817991 -0.016410695 0.0053742942 -0.7268662 -0.011703612
0.0532303 -0.06450996 -0.11586299 -0.054114275 0.3481805 -0.03876148 0.05887776 -0.061540786
-0.07153421 -0.042811316 0.0067385877 0.08322058 -0.015005302 -0.12543374 0.24455297 0.029172774
-0.6562929 -1.1226033 0.3587503 0.006583234 0.13721906 -0.0976975 -0.120619975 0.17341486
-0.09374878 -0.4863426 -0.20835356 0.028600061 0.3051741 0.1094699 -0.009859471 -0.54631186
0.052222982 -0.06725856 0.36393684 0.15815105 -0.077179596 0.044175375 0.18427585 0.0075320485
1.0113665 -0.42440337 -0.37378 -2.136237 -10.900885 -24.878248 -3.9947834 -0.1606165
-0.019032503 -0.051461544 -0.065504625 -0.10592872 0.13897182 -0.5415111 0.27527064 -0.48495623
-0.14840065 -0.03070946 -0.06227367 -0.17916532 -0.016480865 0.06395213 -0.2585931 -0.027831558
-0.91868675 0.29770902 -0.08508751 -0.62549794 0.07145807 0.107481845 -0.009960628 0.19045883
-0.12009303 1.1306677 0.36483908 -0.32714385 -0.1319257 -0.7821268 0.03024366 -0.7200311
0.115949675 0.21487144 0.35466146 0.2913755 -0.21673006 0.5110472 0.06769032 -0.10947643
1.0488634 -0.18754964 -0.00028324887 -0.31264344 -0.06759188 -0.049621396 0.1420928 -0.16474155
-0.01890273 -0.2681794 -0.20709854 -0.21106285 -0.2140189 -0.006174977 -0.05736127 1.1562304
-0.034711167 -0.015546443 -0.24915913 -0.03361517 -0.086811796 -0.37761626 -0.25066414 -0.09622172
-0.37506583 -0.16780122 -0.14347264 -0.07681036 0.06035453 0.10303993 0.07971934 0.11044519
-0.09189163 -1.2788469 -0.33838934 -0.08415846 1.7264651 -0.22498544 -0.06843791 -0.6469362
0.19564697 -0.24911077 -0.08326563 -0.44664288 0.86099213 0.37235442 0.04137195 -0.002377952
0.07977962 -0.05301187 -0.572089 -1.1634774 0.06699436 0.0008940891 1.1057668 -0.15233733
0.15220776 -0.07449617 -0.061813857 -0.16593394 -0.05147307 0.033618387 0.07409789 0.38009962
-0.07269413 0.123102985 0.62214273 -0.11463156 -0.17611057 0.30635008 0.01304731 0.00019940751
-0.34288844 -0.0070882183 0.025479842 0.2671484 0.20341691 -0.07588669 -0.09410741 -0.20816463

module.enc_lstm.weight_hh_l0 f4 [400, 100]
00000000: aff6 363c 278f ab3c f748 193d 327d 933e
00000010: 4c4a 8d3e d6cc 363d 5ef3 2fbe 20cb 7b3d
00000020: 4387 e0bc 93e3 35bc c1fc 033e d5ee 0abe
00000030: 9850 163d e4c5 04bf 24cb b5bd 0f10 a3bc
00000040: bc19 093f 5421 06bc 241a 5b3e acc6 423e
00000050: 050e 1c3d ab63 a53d 5d13 363e 694c 0dbe
00000060: 2d10 cebc ab38 8d3d f506 1a3e 7ea8 02bf
00000070: e0e2 5abe 2c64 8b3f 6374 cb3d 2ae1 7cbd
00000080: 69fb 22bc 8271 1f3d f25c 79bd 6b27 52bb
00000090: fc01 1b3e 1c88 fd3e 554e a83d 25f4 a93e
000000a0: b071 16be 9c01 a23e ab6b 783e 4d2a 0abe
000000b0: fa54 acbe 28ed 203e c588 063e 3948 e13d
000000c0: f35f ce3d 3b7f aabe 737f e53c b5de 59bd
000000d0: 7ceb 8d3f 8720 23bd 3a77 ff3d b7e6 f93e
000000e0: 7b64 00bd 2f26 cb3d 8135 d03d 4fa1 11be
000000f0: 069a 2b3d 6759 59bc 1bd4 ed3d 80fe 843a
00000100: 0fea 22be c4a8 0d3d 34b4 8b3c f4c8 1e3e
00000110: ebde 3dbe ce37 043e da4a 9bbb 4104 153e
00000120: 7114 8ebe d338 a43d 0317 cd3d 4d86 cdbe
00000130: 399a 89bd a4a8 32bf 2f27 ff3c 6045 2a3e
00000140: 80ce 8b3d c1b9 47bc 16fd f53e dedc 40be
00000150: 75cc 87bd 255c a0be 6b77 febe 50fa 1cbe
00000160: e794 ccbc 6c4f 803d 4a7c 0bbe 26d4 32be
00000170: 4e8b 3bbd 5c4c 36be 4efd 92bd f333 77be
00000180: 8cc3 cfbe 4862 593e 6e9a 12be 3885 d23d
00000190: b7b1 3bbd fd34 abbe b1b6 c93d f22b 33be
000001a0: 801c 50be a88b 08be a089 bfbd 9a79 b1be
000001b0: a561 d33e 9881 eebd 4a6e 9b3e 1e22 e73d
000001c0: 1f67 56be 25e2 79be add7 21be fb33 e43e
000001d0: 8537 823d 1fbf 633e 980f 223e 8c37 92be
000001e0: ad9a cfbd fd84 03bd 077b 0a3f b4e7 843e
000001f0: 223d 593e bcb4 a6be 106b 2e3e d578 fbbe
00000200: 88c4 e13d 415f dfbd 14c4 63bd 5a4c 8dbe
00000210: b115 d5be 07c9 6f3d 19eb bd3e 792e 763f
00000220: 5207 7fbe ac11 193e 690b 353f 13e0 bd3e
00000230: 1b8a d4bd 5f2e 813d 33b7 5abc 9e6b a53e
00000240: 7e4c 873e 8b06 eb3e 854a a33d 2c6e 31bf
00000250: a8fa a03e b8ea 3f3e 0cf3 c2be e9ff 25bf
00000260: 77ad 043f b348 5a3e 5a1d f13e 75b4 cc3e
00000270: 9853 a1be 1ed6 c93e d251 b43c d464 68be
00000280: 2015 5d3e 0edb c73e 1d01 c0bd 90dc 233e
00000290: 0316 67bb e68a bfbd 2c59 a83e dfac 803e
000002a0: 7a4e c3be 6161 2e3f 3deb 903e b76a 283d
000002b0: ae9e 2c3e aa6f b3be 092f b63d d722 9abe
000002c0: 4aaa 483d a9ee 2d3e 9849 1d3e 8051 433c
000002d0: 0c50 0fbf 2943 e73e e311 ac3b c8f2 dabe
000002e0: cb99 403e 1a54 02bd 5a55 d33e 598c 1a3e
000002f0: 63ff 283d 9bf7 99be bc54 e73c 2f4b 92be
00000300: c1da 40be 678f 273e 582d 4b3b 7fdb 443f
00000310: a8b3 723e d35b 363e fe12 f73e f419 8cbe
00000320: 1476 46be 931c d5bd caa3 303d b546 a9bd
00000330: 64f8 cf3d 1bf4 83be d4e4 38be 7e6a 843e
00000340: 1dc7 32be a140 84be 06f0 023e 30fe 0abc
00000350: 39ca 53be 9b8e 3fbf 7b3c 5dbe f64a 313e
00000360: fbcd b8bd 7fda be3d 2823 debd 471e e1be
00000370: 422f 08be cead 873e 8b83 663e 3a1b 223e
00000380: 9429 fbbe 5d8b 0cbd f91a a03d 94da a3be
00000390: 7d7e 823c 9ca6 49be d6a8 a03e 9673 dfbd
000003a0: f8cf c33d 5923 833e ebd1 673e 2c53 cabe
000003b0: 43f7 0dbe 8bf6 c6bd 772c d93d 320e e7bc
000003c0: 0759 a0be caac b43d e64c d53e f064 8e3d
000003d0: 9577 0bbf 6d7f 3c3e e385 e4bd c2c0 473d
000003e0: 90f9 703e 772e 483e 7b71 703d d8a0 b43d
000003f0: 6a92 293f 9ec7 823e b2e0 1d3e ae54 103f
0.011167212 0.020942284 0.0374231 0.28806454 0.27595747 0.04462894 -0.17182681 0.061473012
-0.027408248 -0.011101621 0.12889387 -0.1356767 0.036697954 -0.5186446 -0.088766366 -0.019905118
0.5355489 -0.008186657 0.2139669 0.190211 0.038099308 0.08075651 0.17780824 -0.1379868
-0.025154198 0.06895574 0.15041716 -0.5103835 -0.21375608 1.0889945 0.099343084 -0.06173817
-0.009947636 0.03892661 -0.060879655 -0.0032066952 0.15137476 0.49517906 0.08218066 0.3319408
-0.14691806 0.31641853 0.24259822 -0.13492699 -0.33658582 0.15715468 0.13138111 0.110001035
0.100768946 -0.33300194 0.028014874 -0.053190906 1.1087489 -0.039825942 0.124739125 0.48808834
-0.031345826 0.09919392 0.10166455 -0.1422169 0.041894935 -0.013265944 0.116127215 0.0010146648
-0.15909599 0.034584776 0.017053701 0.15506345 -0.18542068 0.12911913 -0.0047391476 0.14552404
-0.2774997 0.08018651 0.10014155 -0.40141526 -0.06718869 -0.69788575 0.031146614 0.16628027
0.06826496 -0.012190283 0.48044652 -0.18834254 -0.06630794 -0.313203 -0.49700484 -0.15329862
-0.024973346 0.062651485 -0.13621631 -0.1746374 -0.04578715 -0.17802566 -0.0717722 -0.24140911
-0.40578878 0.21228898 -0.14316723 0.10279316 -0.04582378 -0.33438864 0.09849299 -0.17497233
-0.20323372 -0.13334525 -0.09352422 -0.34663087 0.41285434 -0.11645812 0.3035758 0.11285804
-0.20937775 -0.24402674 -0.1580493 0.44570908 0.06358246 0.22240876 0.15826261 -0.28558004
-0.10136924 -0.03210925 0.54093975 0.25958025 0.21214727 -0.32559764 0.17033029 -0.49115625
0.110238135 -0.1090684 -0.055606917 -0.27597314 -0.41618112 0.058541324 0.37093428 0.9616466
-0.24905136 0.14948148 0.70720536 0.37085018 -0.10377904 0.06307673 -0.013349342 0.32308668
0.26425546 0.4590343 0.07973198 -0.69308734 0.31441236 0.18741882 -0.38076055 -0.6484361
0.51827186 0.21316795 0.47092706 0.39981428 -0.3150909 0.3942117 0.022011671 -0.22694713
0.2159009 0.39034313 -0.09375212 0.16002107 -0.0035260923 -0.09352665 0.32880533 0.2513189
-0.3814581 0.6811734 0.28304473 0.041117396 0.16857406 -0.3504613 0.0889569 -0.30104706
0.048990525 0.16985573 0.15360105 0.011921287 -0.55981517 0.45168427 0.0052511557 -0.42763352
0.18808667 -0.031818487 0.41276056 0.15092601 0.04125918 -0.3007172 0.028238647 -0.28572986
-0.18833448 0.16363297 0.0031002369 0.76897424 0.23701346 0.17808466 0.48256677 -0.2736355
-0.1938098 -0.10405841 0.04312495 -0.082654394 0.101547986 -0.25772175 -0.18056041 0.25862497
-0.17458768 -0.25830558 0.12786874 -0.008483455 -0.2068261 -0.74826974 -0.21605103 0.17313752
-0.09023663 0.093190186 -0.10846549 -0.43968412 -0.13299277 0.2649979 0.22511117 0.15830699
-0.4905516 -0.034312595 0.078176446 -0.320027 0.015929455 -0.19692463 0.31378812 -0.10910718
0.09561151 0.25612906 0.22638671 -0.3951658 -0.13863854 -0.09714993 0.10604184 -0.028205011
-0.31317922 0.088220194 0.4166023 0.06952846 -0.5447934 0.18407984 -0.11158349 0.048767813
0.235327 0.19548975 0.058701973 0.08819741 0.66239035 0.2554292 0.15417746 0.5637921

module.enc_lstm.bias_ih_l0 f4 [400]
00000000: 2184 b5bc be06 0bbe 849d 17be 7a6e bbbd
00000010: cac7 d4bd 20e1 4dbd ae29 20be cff1 003d
00000020: 7600 7dbe ea4d c6bd fb2e 07be 91dd 703b
00000030: 7d16 8cbe eda9 6a3d ccc6 da3a 0b5b 87bc
00000040: b4f6 a8bd ce96 89be 35e4 4fbd 9e7f debd
00000050: c096 bfbd d60b b8be 6b73 0dbe 4019 463e
00000060: 9854 5d3d 7c34 89bd 2e7d 22be 1ecd 6b3d
00000070: 5253 4ebe 9c16 48be d51a a53d 50ac d5bd
00000080: 95a9 85be 4d1c 47be f51d 7f3b 1620 1cbe
00000090: efa5 bebe 52a2 a6bc e687 b43a 26e1 1e3d
000000a0: 7b10 02be 5bc8 00bd 7dfb a5bd e14d ddbd
000000b0: c6dd 283c a164 e4bd d6bd b0be bef0 0b3d
000000c0: 1231 0dbd 3dcc f5bd 9980 3cbe 85c8 9fbe
000000d0: 7f8d 67be 8a53 913e 9331 edbd 0b47 cfbc
000000e0: 2174 9d3d 333d ce3d 8db2 d9bd c53f 4bbe
000000f0: d265 a4bb 9087 95bd 3f52 c73d c4cd b63b
00000100: f01b 81be c1ba ee3c 7a2d 42be 0198 1ebe
00000110: 3078 75be a370 cc3c 246c 013e fc4f 6bbc
00000120: 695c f3bd e378 b13d 58fe 8dbe 409e 58be
00000130: 8907 5e3d 13b3 ae3d 2c9b f93b 5d39 cbbd
00000140: 24a7 993d 7e28 4abd 397c ddbd 2828 bcbd
00000150: 4fe1 ae3d 0aff 3b3c fd28 00be 6981 29be
00000160: 987c 2f3e ac53 a73a 057c 85bd a8ae 99bc
00000170: e793 983d 3f92 e13d ed83 8e3d bd2b 893c
00000180: c93b 7b3c db7b a6bc d7b6 0e3d 1b2e c5be
00000190: 27b0 4c3d 42c6 a93e bb92 443e 3584 13be
000001a0: 3638 afbc ac16 793c 7bef 8ebd caba 0a3e
000001b0: 8f96 343e 3bb3 613e 7079 1d3e 2040 063e
000001c0: 575a 863e 3820 50bd 15db 073e 2e27 2d3d
000001d0: e430 d1bd f5ad 28bb 3534 d43d b64c 193e
000001e0: a59e 1d3e 510e d83e c2c9 99bd 12a0 9c3e
000001f0: e7da eb3c 7575 373e 450e 9e3e 5ec1 ac3d
00000200: c930 2b3e a876 263f c1da 2cbe 289a 4b3e
00000210: a33e bf3e e1cd f13e 994c bb3d db3f d1bd
00000220: b2b5 ed3d a3a9 243e 353f c6bd d2fa 7cbd
00000230: d6ab 823e dab5 a23d fe69 a03c b7bc dbbd
00000240: a997 a9bd b7c1 9a3d 39d4 8a3e 15f4 66bd
00000250: 3e99 903d cf90 473e 6eed d73d efce 103e
00000260: 1669 e53d 6cfa aa3e 1e8a bcbc b600 ed3d
00000270: 7445 6cbd e52d 48bc 26c1 a7be d29a 6b3e
00000280: 86e6 603e 4143 7a3e 1d48 3cbd bec9 8e3e
00000290: 4829 a23d cb2e 023e 5e1c 393e d78d 303e
000002a0: 0a5a e83d c3b9 f7bc 178e 863e d0c2 ae3d
000002b0: c8fe 98bd 6528 5bbe 4630 c23e aadf 3bbd
000002c0: 3b73 cabd 49da 2a3d a46e 023e ab14 783d
000002d0: 5e1e 20bd 8133 993c 7691 f43e e62e 8e3c
000002e0: 540f 4e3e 14cc 0e3e d808 a7bc 9aa0 b43d
000002f0: 20f7 9c3e eb86 0f3e 22ee 223e 4351 a9bd
00000300: 1f14 1c3d ecfc 98bd 9dc5 30bd d049 aa3c
00000310: 8e7b bdbd 0a1c a2bd bcf3 123e d045 853e
00000320: b3c6 86bd d244 763c e191 fdbd 783b 933c
00000330: 2a89 613e f3c0 173e 7fb6 9c3d 2411 46be
00000340: f3b0 bd3c ff84 0c3e e8cb 15be 06e0 c0bd
00000350: fc8f d3bd 7ddc c1bd ca31 fd3d cffc b0bd
00000360: 0e72 acbd fb27 023d 7d2d c2bd a767 f73d
00000370: 0498 ba3d 665c 58bd 530f c63c 658f 94bd
00000380: efd9 c8bd d9d6 ac3c 60c8 6abe 024c e73d
00000390: 995e ebbd f952 0dbd 3e1b f6bd 8019 8e3d
000003a0: 3250 ffbc 7c2a 1c3c cebe 10bd 3e6f 9f3d
000003b0: 4d0e d83c 616d 603c 9f85 44be f87c 1abe
000003c0: 924b 1fbe 8ad1 3cbd 355f a6bd 31c7 2fbe
000003d0: 7e33 7fbd f192 ca3b e754 febd 0b8b 5b3d
000003e0: 26da 82bd 2fb9 233e d8f1 a838 694c 3abd
000003f0: 8aff a6bc 84b7 b1bd ccca 14bd 9e5a 093e
-0.02215773 -0.1357679 -0.14806181 -0.09151931 -0.10389669 -0.050263524 -0.156409 0.031480607
-0.24707207 -0.0968283 -0.13201515 0.0036753158 -0.27360907 0.05729096 0.0016691326 -0.016522905
-0.0825018 -0.26872867 -0.050754745 -0.10864185 -0.09354925 -0.3594653 -0.1381356 0.1934557
0.054035753 -0.06699464 -0.15868065 0.057568662 -0.20148972 -0.19539875 0.080617584 -0.104332566
-0.26105943 -0.1944439 0.0038927768 -0.15246615 -0.37235972 -0.020341072 0.0013773411 0.038788937
-0.127016 -0.031441074 -0.08104608 -0.1080587 0.010306781 -0.11152006 -0.34519833 0.034165137
-0.034470625 -0.12001846 -0.18408431 -0.31207672 -0.2261257 0.28384048 -0.11581721 -0.02530243
0.076881655 0.100702666 -0.10629759 -0.19848545 -0.0050170207 -0.07301247 0.09732484 0.0055787284
-0.25216627 0.029141786 -0.1896266 -0.15487672 -0.23971629 0.024956053 0.12638909 -0.0143623315
-0.1188286 0.086656354 -0.2773311 -0.21154118 0.054206405 0.085302494 0.007617375 -0.099230506
0.07502583 -0.049355023 -0.10814709 -0.09187347 0.08539068 0.01147438 -0.12515636 -0.16553272
0.17137372 0.0012766025 -0.065177955 -0.01876004 0.07450085 0.11014222 0.069587566 0.016744489
0.015334078 -0.02032273 0.03484234 -0.38511738 0.04997268 0.3315907 0.19196598 -0.14405902
-0.021389108 0.015203159 -0.06979271 0.13547817 0.17635559 0.22041027 0.15378356 0.13110399
0.262408 -0.050811976 0.13267167 0.042273693 -0.10214403 -0.0025738452 0.1036152 0.14970669
0.1539255 0.42198423 -0.075091854 0.30590874 0.028790904 0.179159 0.30870262 0.08435319
0.16717829 0.65024805 -0.16880323 0.19883025 0.37352476 0.47227386 0.09145469 -0.102172576
0.11606921 0.16080336 -0.096800245 -0.06176264 0.25521725 0.07944842 0.019581791 -0.10729354
-0.0828088 0.075564794 0.27115038 -0.05638512 0.07060479 0.19488834 0.10543333 0.14141439
0.11201684 0.33394182 -0.023015078 0.11572401 -0.057683423 -0.012217973 -0.32764548 0.23008278
0.21962938 0.24439718 -0.04596721 0.27888292 0.0791803 0.12713163 0.18077227 0.17241608
0.113452986 -0.030239945 0.2628028 0.08533251 -0.07470471 -0.21402128 0.37927455 -0.0458676
-0.0988526 0.04171208 0.12737519 0.060566586 -0.03909146 0.018701317 0.47767228 0.017356347
0.20123035 0.13945037 -0.02038996 0.08819695 0.3065729 0.14016311 0.15911153 -0.082674526
0.038105126 -0.07470116 -0.04315721 0.02078715 -0.09252082 -0.07915504 0.1435079 0.26029825
-0.065808676 0.0150310565 -0.1238134 0.017972693 0.2202498 0.14819698 0.07651996 -0.19342476
0.023155665 0.13722609 -0.14628565 -0.09417729 -0.10330197 -0.09465883 0.12363012 -0.086419694
-0.08420192 0.03177641 -0.094813325 0.12080317 0.09111026 -0.052822493 0.024177229 -0.07253913
-0.098071925 0.021098541 -0.22928 0.11293794 -0.114926524 -0.034502957 -0.12016915 0.069384575
-0.03116617 0.009531613 -0.035338216 0.0778489 0.026374007 0.013697953 -0.19191597 -0.15086734
-0.15556172 -0.04609827 -0.08123628 -0.17165829 -0.062304966 0.0061820676 -0.124185376 0.0535994
-0.06389265 0.1598861 8.055911e-05 -0.045483027 -0.020385522 -0.08677581 -0.036326215 0.13413474

module.enc_lstm.bias_hh_l0 f4 [400]
00000000: ec5f fc3d ab64 31be c568 4ebe 7cab 44be
00000010: 2165 bcbd a691 f63d 249b 3bbe 4a17 54bc
00000020: 618a e4bd 6bd1 95bd 84ca 4fbe d782 aabd
00000030: c0ef 21be 4085 6dbc 5b22 07be 71ca 263d
00000040: b115 e9bd 6d5a 32be 4448 89bd 5a1f 86bd
00000050: a675 443d 4fde 46be d895 59bd c65d 833e
00000060: 298f 093c 42e3 aebd dd77 64be 89a7 dabc
00000070: ce36 f7bd 6c84 5abe 8c0b d83d e774 8ebd
00000080: be67 81be d031 93be 7948 433d bb80 29be
00000090: 50b0 94be e92d 39be f3b9 743d 840e bcbc
000000a0: 22e0 98be 13c0 503d 354f a6bd 3aca f0bd
000000b0: f86f 1abd 290d 69be 605a 3ebe 9db3 463c
000000c0: 677d 30bc d943 29bd c40e 82bd 4ecf 8bbe
000000d0: d76f 30be aefb 873e 55ef 1cbe bdee 86bd
000000e0: 4286 183d eebd 2d3d 0531 063c c550 81be
000000f0: dbab e3bc c9d3 993c 9e2b 8d3d 4476 bb3d
00000100: b84c 5abe 33e4 5bbd 7846 28be 3b2f 1bbd
00000110: 6328 84be d140 f83d bf29 de3d 397a cabd
00000120: 73d0 3bbe e80b 0e3e 7f8f 2fbe dfe7 c8bd
00000130: 7dad 1a3d ba41 d8bc 68df 02bd f568 c1bd
00000140: 47a3 28bc 4d81 083d 8779 84be e7c7 d43c
00000150: 0afa 113e 3357 96bd ae8a 72bc 82f1 bdbd
00000160: 66ac 703d 7da5 163c e8e5 63ba b347 2cbe
00000170: 3be0 81bd 2eeb c33d 95a1 713c 17fd 3c3e
00000180: 1e59 a93d b720 4cbd 54f7 053a cf3a a8be
00000190: 3d51 b93d 2eb2 bb3e 78b4 273e 2624 ccbd
000001a0: e305 9ebd 976d 133e a125 e23b 527b fa3d
000001b0: c2af b83e 00d6 e63d 6233 7a3d d86d 773e
000001c0: 36ea 6f3e 0966 a03d 27e2 d63d 0db9 b93d
000001d0: ff06 053d 1de3 a83d 9891 473d c41b 213e
000001e0: 099e 273e 1fa0 db3e 1fd8 2a3d ee97 663e
000001f0: bbed 91bc 7c9f e43c 1081 a83e 81e2 013d
00000200: f397 4c3e 77f7 2f3f 3a7f 01be fad8 313e
00000210: f4f8 8c3e a92b e43e 9ea9 963c 97f9 6fbe
00000220: 26c2 e63d 77b9 a43d f709 863c 16c5 2abd
00000230: 1b98 863e 8d55 ef3d 813a ea3d a8c5 c2bd
00000240: 0abd b7bd fa18 193e 41df 953e 92b5 0e3d
00000250: 0856 263d 9573 0e3e c7f2 fa3d a2d6 2a3e
00000260: f06f b2bc 3756 963e 8449 1c3c b945 723d
00000270: cacd 16bd afcd 23bd 769b 7ebe d4fe 303e
00000280: 9993 913e ca34 343e f805 bebc 3ecb 823e
00000290: b6ab 893d d04d a73d 4691 0a3e ef96 f43d
000002a0: 34f7 d23d e897 9a3d 39e7 b63e 85fb 663e
000002b0: abc4 c9bd e45c 1dbe 438d 923e 4391 873d
000002c0: 16bc 5ebb ab6e cc3d 7626 413e dc6d 293d
000002d0: 25d4 07bc 660f ddbd 4deb e63e 5987 fe3b
000002e0: d6a7 263e 713d 7c3e 4c8f 0a3e 1974 1c3e
000002f0: 17d6 043e 02f6 ef3d 7a2f c23d e293 663d
00000300: 7f80 b13d 9536 6e3d 2fea 1ebc 08a7 afbd
00000310: 38a0 7dbd bc30 a33a f122 c63d d49b 513e
00000320: d37e 44bd d517 853b 9cd4 553d c1d4 2a3e
00000330: 361f f13d 1d95 4c3d 86f4 c93d a44c 3ebe
00000340: c265 6d3d 4279 fa3d 9f0a 6bbd fd2c f8bd
00000350: dce9 cbbd 7da9 1fbe d64c 3b3d 6458 8ebd
00000360: ec51 4a3b 1394 a0bb 03e3 48bd a418 4b3e
00000370: d6a5 d73d 7fc0 22bd f035 dd3a fbba e5bd
00000380: 4527 2bbe b2c7 973d 0adf 87bd ce47 a5bb
00000390: 18b1 38bd 62a1 a13d 4f7b 5abd 6898 583e
000003a0: bfc1 c8bd 0d21 8bbd 2dbc 49be 503a fb3b
000003b0: 56fc fc3d 3f71 653d bea4 33be 2c94 a6bd
000003c0: 93ff 0abe 58f0 51bd b441 76be d747 16be
000003d0: 6d12 123d a4bf 6f3c dc5f b2bd b479 073e
000003e0: 2e71 a0bd 72e2 843c a52b d33d 30e1 bd3d
000003f0: f3b1 7c3c deac 36be 0d9d c1bc 54c4 073e
0.12322983 -0.17323558 -0.20157154 -0.19206041 -0.09198976 0.12039499 -0.183209 -0.012945006
-0.11159206 -0.07315334 -0.20292097 -0.08325737 -0.15814114 -0.014497101 -0.131967 0.040720407
-0.113810904 -0.17417307 -0.06703237 -0.065489486 0.04796376 -0.19420741 -0.053121418 0.2565748
0.008395948 -0.0853944 -0.22311349 -0.026691215 -0.12071 -0.21339577 0.105490774 -0.06955891
-0.25274462 -0.2874894 0.047676537 -0.16553013 -0.29040766 -0.1808392 0.059747647 -0.02295614
-0.298585 0.050964426 -0.08120576 -0.11757322 -0.037704438 -0.22758926 -0.18589163 0.012127784
-0.010772086 -0.04132447 -0.063504726 -0.27306598 -0.17230164 0.26559204 -0.15325673 -0.065885045
0.037237413 0.04241746 0.008190398 -0.25256935 -0.027791908 0.018777745 0.06893085 0.09153417
-0.21318328 -0.053684425 -0.16433132 -0.03788684 -0.25812063 0.12121738 0.10847806 -0.09886593
-0.18341236 0.1387173 -0.17144583 -0.09809851 0.037763108 -0.026398528 -0.031951338 -0.09443847
-0.010292835 0.033326436 -0.25873968 0.025974227 0.14255539 -0.07340851 -0.014803572 -0.092745796
0.058758162 0.009194729 -0.00086936215 -0.16824226 -0.06341597 0.09566341 0.014747997 0.18455921
0.08268951 -0.049835887 0.0005110402 -0.32857367 0.09048698 0.36659378 0.16377437 -0.09967832
-0.077159666 0.14397274 0.0069014584 0.12230553 0.36071593 0.11271286 0.06108416 0.24162996
0.23429188 0.07831962 0.10492354 0.09068499 0.032477375 0.082464434 0.048722833 0.15733248
0.1636888 0.428956 0.041710015 0.22518894 -0.017813554 0.02790808 0.32910967 0.03171015
0.19979839 0.68736976 -0.1264619 0.17367926 0.27533686 0.4456456 0.018391427 -0.23435055
0.112674996 0.08043187 0.016362173 -0.041691862 0.26287922 0.116862394 0.1143694 -0.09510356
-0.08971603 0.14950934 0.29271892 0.034841128 0.04060939 0.13911279 0.12253337 0.16683438
-0.021781892 0.29362652 0.009539012 0.059148524 -0.03681735 -0.039991077 -0.24863991 0.17284709
0.2843292 0.17598262 -0.023196205 0.25545686 0.067222044 0.081691384 0.1353198 0.11942851
0.103010565 0.07548505 0.35723284 0.22556885 -0.098519646 -0.15367466 0.286234 0.06619503
-0.003398662 0.09982046 0.18862328 0.041364536 -0.008290325 -0.10793953 0.45101395 0.0077675995
0.16274962 0.24632813 0.13531226 0.15278663 0.12972294 0.11716844 0.09481712 0.056293376
0.08667087 0.058157522 -0.009699388 -0.085767806 -0.061920375 0.0012450437 0.09674633 0.204696
-0.04797251 0.004061679 0.052204713 0.16682722 0.11773531 0.049946893 0.09861092 -0.18583924
0.057958372 0.12230159 -0.057383176 -0.12117956 -0.099567145 -0.15591998 0.045727573 -0.06950453
0.0030871583 -0.0049004643 -0.04904462 0.19833618 0.105296776 -0.03973436 0.0016877037 -0.11217304
-0.16714199 0.07411136 -0.06634338 -0.00504396 -0.045090765 0.078921095 -0.053340252 0.21151888
-0.09802579 -0.06793413 -0.1970069 0.0076668635 0.12352817 0.056016203 -0.17543313 -0.0813373
-0.13574056 -0.0512546 -0.24048501 -0.14675842 0.035662103 0.014633093 -0.0870969 0.1323002
-0.07834087 0.016221259 0.10311059 0.09271467 0.015423286 -0.17839381 -0.023634458 0.13258487

module.enc_lstm.weight_ih_l0_reverse f4 [400, 3]
00000000: 4626 423b b0b8 733e 7b74 32bf ea37 d5bc
00000010: f208 a9bd 74bb 49bf 1b36 2d3c bcc6 243e
00000020: 4e31 ddbe 2a7c 153e fe15 4a3d 396d 05bf
00000030: 2a70 25bd cd38 e03d 5a38 b8be 8c60 8b3c
00000040: 4cfd 9fbd 2305 d6be ed89 b3bc 5d9e 4e3d
00000050: 14f8 01bf 26e0 26be a57c cebe c515 6ebe
00000060: b47f 193e f825 3e3e 6a7c 1abf ad47 24bd
00000070: 15e4 b9bc 9041 43bf ba99 293f b1c5 01c0
00000080: 2b82 123f 0357 eb3d 0564 b6bc a628 58bf
00000090: 7714 2f3d 2080 f33b 6169 5bbf 0881 28bc
000000a0: b207 293d e6e5 1fbf b4ff d8bd 43c1 d73d
000000b0: 229c d6bf 6ef4 eabe 21b7 a2bd 56ec 983d
000000c0: e018 a4bb 2f93 273e 4c9c 4fbf d3e5 133c
000000d0: 3ef3 133d e551 e7bd 5237 6f3f ed45 70bf
000000e0: 370b 2abf f139 823f 48ff 41bf e4c6 bfbd
000000f0: 09f8 853d 179e 83be 0a00 40be 86f5 c53f
00000100: e833 a93f d43b c2bd ca85 933d d11a 9cbc
00000110: 29c2 29bf 8a8d adbd f94f 73be afd3 debe
00000120: 1e1d 173f 4365 5cbb 9e9b 82be f649 40bf
00000130: 0e2c 643c 594d 8f3e ce50 04be 4ac8 0f3c
00000140: 88fa fabd 473d 5bc0 0029 c7bf cfbb 0cc0
00000150: 8949 293f 1b6a f4bd 4600 ed3f f40c ab3b
00000160: 6a4e 253f c64b 85be b707 88bd 0f56 833e
00000170: d53e 3cbf 6330 79be e957 0fbe cfeb 3e3f
00000180: a128 a3bc 9815 24be 1348 66bf a834 203d
00000190: 1161 143d 4a8a 56bf 8f4f 64bd e799 f7bc
000001a0: edff 843e a841 773e 023c 2d3e 14bc 1b3f
000001b0: ef42 6a3d 041c 103e 437a 88bf 2df0 d3bc
000001c0: 2d75 f33b b506 4dbf aa9a 353d e33d 9fbe
000001d0: 489e f3be 4263 67bc 5899 853e cdf7 84bf
000001e0: 43e7 05bf d72e f0be f989 8fbe f5be 5cbd
000001f0: 81b8 fbbd 492c 51bf b531 6abd 097c 9ebe
00000200: 0ac3 9ebe fe78 1fbf 914e 4dbf 6417 f5bf
00000210: aee0 38be acad 7f3d 5d21 42bf d101 38bf
00000220: 16fb 9abf b725 13be 04d2 1ebd 031d 85be
00000230: bc09 5abe a148 16be 3452 ab3f e69c 72c0
00000240: 0bca 7f3d 28f6 09be 073c c9be 6df3 29be
00000250: 7da8 7e3f 75e5 e73d 8737 eabe a0fd b9b9
00000260: 2445 5dbf 4027 12bf 915d 093f 1d43 5bbf
00000270: f58c 6dbd 64e9 17bc f979 1cbf 56a1 12c0
00000280: 841e afbf 13ee 02c0 b598 1bbd b102 8bbd
00000290: 6cce f6be 1b2a c23e dc68 30c0 8fa6 ae3e
000002a0: a3ce 9cbc 5e4c 183e bb96 85bf 0da3 b63d
000002b0: e9f8 30be b892 d1be ae44 78bd 4e95 abbe
000002c0: 10ad 7abe d855 02be 27f5 f2bd 9a3f 84be
000002d0: 2d3f 13be 1b84 cabd f91a 71bf 2c1a 87be
000002e0: 1264 a53d 0735 46bf 3811 5cbd e1f6 7a3e
000002f0: 3bc4 08bf 4ce4 9dbd a424 eb3c dccd 22bf
00000300: de0b 5abf 83f4 c93f 5319 a53f 2870 5ebd
00000310: ca27 a2be 3f57 98be f7c7 5f3d 92df 053e
00000320: 5575 a2bf e467 563f 3f46 8b3e 562f 083e
00000330: d963 90bc a7fd 443d 6682 c1be 345c c1be
00000340: 4746 55bd a8e4 7cbe 0fd7 6fbd 0119 1fbd
00000350: 27bd 10bf 1e94 343d 9a46 593b dc11 38bf
00000360: af0f f23b ed79 90be c4a5 2dbf 4036 81be
00000370: 79ca 85be 1134 9b3e 70b1 713d 161e 98be
00000380: 9516 97bf 4cc4 acbd 6846 613d 532c a9bf
00000390: d6ef bebd d848 86be cf65 c83e 2d7e f53c
000003a0: ae3d 813d 30b3 3abf 113d 803d 627f a6be
000003b0: c11f 53bf b891 7abd fd80 563d 22dc 05bf
000003c0: befd a5bc de19 3cbe 9f82 98bf bae5 36c0
000003d0: 7b0b b53f 1961 1ebd 18b8 b7bd d41a 103d
000003e0: 52bd bfbe 1a34 33bd 30cd 88bd e477 27bf
000003f0: 75ad 903e 476b 093e 8f49 98bf c6fe 5abe
0.0029624864 0.23800921 -0.69708985 -0.026027638 -0.08253659 -0.78801656 0.010571982 0.16091436
-0.4320168 0.14598146 0.04933738 -0.52119786 -0.04039017 0.10948334 -0.35980493 0.01701381
-0.078119844 -0.41800794 -0.021916354 0.050443996 -0.5076916 -0.16296443 -0.4032947 -0.23250492
0.14990121 0.18569171 -0.6034609 -0.040107418 -0.022691766 -0.76271915 0.66250193 -2.0276911
0.5722987 0.114912055 -0.02226449 -0.84437025 0.042744126 0.007431045 -0.8570767 -0.01028467
0.041267104 -0.6246017 -0.105956465 0.105349086 -1.6766398 -0.4588961 -0.07945085 0.074669525
-0.005007848 0.1636474 -0.81097865 0.009026962 0.036120646 -0.11294917 0.9344379 -0.938567
-0.6642336 1.0173932 -0.75780153 -0.09364107 0.065414496 -0.2570655 -0.18750015 1.5465553
1.3218966 -0.094840676 0.072032526 -0.019055756 -0.6631189 -0.08474262 -0.23760976 -0.43520877
0.59028804 -0.0033629693 -0.25509351 -0.75112855 0.013926519 0.279887 -0.1292145 0.00877578
-0.12254816 -3.425615 -1.5559387 -2.198963 0.6612783 -0.119343005 1.8515708 0.00522005
0.64572775 -0.26034373 -0.066420965 0.25651595 -0.73533374 -0.24334864 -0.13998379 0.74578565
-0.019916834 -0.16023862 -0.89953727 0.039112717 0.036225382 -0.8380476 -0.055739935 -0.030224754
0.25976506 0.2414614 0.16917422 0.6083386 0.05719274 0.14073187 -1.0662311 -0.02587136
0.00742974 -0.8008836 0.044336952 -0.31101903 -0.47581697 -0.014122786 0.26093554 -1.0388123
-0.52306 -0.46910736 -0.28034952 -0.05389305 -0.12291051 -0.817082 -0.05717631 -0.30954006
-0.31008178 -0.62293994 -0.8019801 -1.9147763 -0.18054458 0.062421486 -0.7583216 -0.7187777
-1.2107875 -0.14369856 -0.038774505 -0.25998697 -0.21292776 -0.14676143 1.3384461 -3.7908263
0.062448543 -0.13472807 -0.3930361 -0.16596766 0.9947584 0.11323062 -0.4574549 -0.00035474915
-0.86433625 -0.5709114 0.53658396 -0.8564928 -0.057995755 -0.009271953 -0.61123616 -2.2910972
-1.3681188 -2.045781 -0.03798743 -0.06787623 -0.48204362 0.3792275 -2.7564 0.3411145
-0.0191415 0.14872882 -1.0436624 0.08917818 -0.17282452 -0.4093225 -0.060612373 -0.33512348
-0.2448008 -0.1272806 -0.11863165 -0.25829774 -0.14379568 -0.09888478 -0.9418178 -0.26387155
0.080757275 -0.77424663 -0.05372736 0.2450824 -0.53424424 -0.0770956 0.028703995 -0.63595366
-0.8517436 1.5777744 1.2898353 -0.05430618 -0.31670982 -0.29754063 0.05463406 0.13073567
-1.2692057 0.83752275 0.2720203 0.13299307 -0.017625736 0.048093464 -0.377948 -0.37765658
-0.052068975 -0.246966 -0.058554705 -0.038842205 -0.56538624 0.044086568 0.0033153654 -0.7190225
0.0073871235 -0.28218022 -0.67831063 -0.25236702 -0.26131037 0.3031316 0.05900711 -0.29710454
-1.1803766 -0.08435878 0.054998785 -1.3216652 -0.09323089 -0.2622745 0.39140174 0.029967392
0.063105926 -0.7292967 0.062616475 -0.3251906 -0.8247033 -0.061174124 0.052369107 -0.5228902
-0.020262595 -0.18369243 -1.1914862 -2.8577714 1.4144129 -0.03866682 -0.0897066 0.035181835
-0.37449127 -0.04375086 -0.066797614 -0.65417314 0.28257337 0.1341983 -1.1897448 -0.21386251

module.enc_lstm.weight_hh_l0_reverse f4 [400, 100]
00000000: 00ca 9e3c 8dec 273d e060 0c3d 9a0f 143b
00000010: f70d 703d 60da 213d 5b4d 9fbd 334d 5abc
00000020: c0ed 8cbc 5d03 b6bd 2d68 e93c 000c ebbb
00000030: 0046 6fbc 1a48 b43c f020 11bd 67af 583c
00000040: 1a50 c3bd 9ac0 703b 23ef c4bd fd8b 063d
00000050: 1a92 403c 8dd6 bebc 682e b03d b0c2 843d
00000060: b75d b83d 73fe e0bc db32 a2bd 1a7d 873b
00000070: 47f1 cb3c a7ef 653d 87bf 923d 68ce be3d
00000080: 5d3d 9fbd b36e bfbd 132a 8cbd 3395 c73d
00000090: 2d51 85bd 3ac5 bfbc 9a41 e8bb a7e3 10bd
000000a0: 679d ecbb 9ac4 323c f76b 313d 47b8 be3c
000000b0: 6f1b bbbd daa4 bb3d 07ea 31bd 33c7 04bb
000000c0: 0846 b33d 404e df3c cd68 a0bb 7af4 83bc
000000d0: 67a2 eb3a 337f f2bb b7f2 c5bd cd2a fb3b
000000e0: cd30 e2bb c7c5 d73c d769 71bd 43ac 2c3d
000000f0: 605f e53c c0f5 5fbd 2358 b13d 0daa 27bd
00000100: cd18 833c dd33 09bd 6f94 87bd 3ae9 05bd
00000110: 0d12 2ebc 9aea bbbd 0a31 b5bd c750 46bd
00000120: ea02 c9bd ad28 993c 053b 843d d374 c83d
00000130: f756 34bd 1a52 f73b 630c 84bd ed2b b9bc
00000140: 677e 5f3a 97fc 003d 67cd 973c 2248 b63d
00000150: 4d05 be3b 6d47 94bc cd2b 47bc 5a9b c9bd
00000160: ca5d 74bd 9778 b43d c0c6 73bc a72f 813c
00000170: 00ac 88bd 27d6 4e3d 00dd 64bc 472d 643d
00000180: 2764 363d 9b13 be3d da98 f73c 7a46 10bd
00000190: 4a1e 6d3d cbe0 9c3d 33a3 b73d ba77 73bd
000001a0: cd8c 233a 3344 373d c0a2 9fbc b388 39bc
000001b0: 130d 153d 6dea d43c 2db4 01bd 6ab7 c2bd
000001c0: fde0 5d3d cdfa c63d 6dfc 383d bac8 2c3d
000001d0: e333 b63d 8f0d 96bd 9724 423d 87f0 5dbd
000001e0: 93da edbc 8d99 253c d348 a7bd 17d8 6a3d
000001f0: 784c c3bd 334f fa3c 0750 443d b334 47bc
00000200: d054 753d cd9e dcbb 3a2c 0abd 9a7b 48bb
00000210: 2df9 b0bd ba3e d4bc 9a51 383c bd9a a43d
00000220: 3a37 d43c df72 a63d 351a 94bd 4d10 653d
00000230: f3bd f13c 0a2d 253d 6da3 713d 1353 9fbd
00000240: 6deb a13d 2756 eabc fa17 19bd 0307 8f3d
00000250: 4a9f 0ebd 0ae2 c1bd 5a9c aa3d 87de be3c
00000260: 00c6 083d 67cd 953b 67f6 bbbd 4074 4c3d
00000270: 775c 013d 8abc b0bd 6379 163d 20f1 b4bc
00000280: 6731 383c 0ae1 25bd e799 b53c d785 afbd
00000290: 9361 a5bc b013 a53d 40eb 1a3d 1d85 833d
000002a0: d368 83bc 4bd3 87bd c8b8 923d 0f84 a7bd
000002b0: 2d39 e1bc 9b44 c0bd 3382 943c c02d 673d
000002c0: e06f e93c a8ea a33d cd02 ee3c 6d82 893c
000002d0: 95e7 a9bd 8029 1bbc 4220 91bd 7b7e 9ebd
000002e0: 872f 283d 9398 9dbc cf9a b83d f762 babd
000002f0: 3dba aebd f8e4 acbd a7a3 21bd 8a7b 5c3d
00000300: 3702 513d 73a4 87bd 9a93 c83b 4be9 b73d
00000310: 2752 03bc f34e ec3c ed1c 9b3d 1d2c 58bd
00000320: ad6a a7bc 875c ad3d daff 70bc c042 a63c
00000330: ab2c c2bd f022 123d 5036 423d 60e4 c3bc
00000340: a55a 933d 5047 8bbd aad6 a23d 4780 393d
00000350: 6380 20bd 9027 cc3d 4738 963d fdec 4b3d
00000360: 4a25 6abd 770b b0bd 4765 f63c 101d af3d
00000370: 1368 dbbc 27cb 3b3c 3778 36bd f360 e13c
00000380: 00e7 c73d da3f fd3c 3a6c 893c c7fe 41bd
00000390: 25be 9bbd 4a5f 0dbd 3ad8 b1bc 9a9d df3c
000003a0: 475d cabc 58e7 acbd 0dd2 3cbd 878e 1abd
000003b0: 27d8 2cbc 3303 4cbc 5810 acbd 0dfc 183c
000003c0: 5f5c c0bd a3db 43bd 42cb 90bd 6db9 2ebd
000003d0: aa01 b8bd 65ce b13d dbbc abbd 4b27 a43d
000003e0: c0b1 a0bc 6776 9ebb cde9 103d 7a21 293d
000003f0: b5e2 973d 47f4 1bbd 7d72 1a3d 80d5 fe3c
0.01938343 0.040997077 0.034272075 0.0022592307 0.058607068 0.0395149 -0.07778426 -0.01332407
-0.017203212 -0.0888736 0.028492058 -0.0071730614 -0.014604092 0.022007037 -0.035431802 0.013225413
-0.095367625 0.0036735893 -0.09615924 0.032848347 0.011753583 -0.023295665 0.08602601 0.06482446
0.0900225 -0.02746508 -0.07919856 0.0041347863 0.024895323 0.056136753 0.07165437 0.093167126
-0.07775376 -0.09347286 -0.068439625 0.09745254 -0.06509624 -0.023409475 -0.0070878984 -0.035373356
-0.0072209123 0.010911131 0.043315854 0.02328123 -0.09136092 0.09162302 -0.043436076 -0.0020260334
0.08753592 0.027258992 -0.0048953057 -0.016107786 0.0017977477 -0.0074004172 -0.09665435 0.0076650144
-0.00690279 0.026339425 -0.058938827 0.04215647 0.02799958 -0.054677725 0.08659389 -0.040933657
0.016003037 -0.033496726 -0.06620108 -0.032693125 -0.010624421 -0.09175606 -0.08847244 -0.04841688
-0.09815009 0.018696154 0.064565696 0.097879075 -0.04402825 0.007547629 -0.06447675 -0.022603953
0.00085256103 0.03149089 0.01853056 0.08900477 0.0057989717 -0.018100465 -0.012156439 -0.09844084
-0.059659757 0.08812063 -0.014878929 0.015769793 -0.066734314 0.0504972 -0.013968706 0.055707242
0.044529106 0.09281083 0.030224252 -0.03522346 0.057890214 0.07660063 0.08966675 -0.059440352
0.00062389375 0.044742774 -0.019486785 -0.011324096 0.03638942 0.02599069 -0.03166597 -0.0950764
0.054169644 0.09715805 0.045162607 0.042183615 0.08896615 -0.07326805 0.047398176 -0.054184463
-0.029034888 0.01010741 -0.08168187 0.057334986 -0.0953607 0.030555343 0.047927883 -0.012158561
0.059895337 -0.0067327977 -0.033733584 -0.003059125 -0.086412765 -0.025908817 0.011249924 0.080373265
0.02590524 0.08127379 -0.07231561 0.05592375 0.02950952 0.040326156 0.058993746 -0.07779517
0.07906232 -0.028605534 -0.03737638 0.06983759 -0.03481988 -0.09466942 0.08330603 0.023299469
0.033391953 0.004571605 -0.09177857 0.049915552 0.031582322 -0.08629711 0.036736857 -0.022087634
0.011242247 -0.040497817 0.022168113 -0.0857045 -0.020188129 0.08060396 0.037822008 0.06421874
-0.016041195 -0.06632098 0.071641505 -0.08179485 -0.027493084 -0.093880855 0.01812849 0.056440115
0.028495729 0.080037415 0.02905407 0.016785825 -0.08296124 -0.009470344 -0.07086231 -0.07738968
0.04106095 -0.019237792 0.090139024 -0.09100907 -0.08531616 -0.0844211 -0.03946271 0.053828754
0.051027503 -0.06623163 0.006121111 0.08980044 -0.008015192 0.02884624 0.075738765 -0.052776445
-0.02043661 0.08464914 -0.014709437 0.0202955 -0.09481176 0.03567785 0.047415078 -0.023912609
0.071950234 -0.06800711 0.079511 0.04528835 -0.03918494 0.099684834 0.07334953 0.049786557
-0.057164468 -0.08595937 0.03007759 0.08550465 -0.026783025 0.0114620095 -0.04454824 0.02751205
0.09760857 0.030914236 0.01677524 -0.047362115 -0.076046266 -0.034514703 -0.02170955 0.02729683
-0.024702681 -0.08442563 -0.046098758 -0.03773358 -0.010549582 -0.012451935 -0.08401555 0.009337437
-0.093926184 -0.047816884 -0.07070018 -0.042657305 -0.089846924 0.08681945 -0.08385631 0.08015307
-0.019616008 -0.004835892 0.03537922 0.04129169 0.07416288 -0.038074758 0.03770684 0.031107664

module.enc_lstm.bias_ih_l0_reverse f4 [400]
00000000: 813f 10c0 af4c 2ec0 828a 19c0 db09 3ec0
00000010: b2d0 a6bf 7e5d b5bf 828f 0cc0 2832 95bf
00000020: ee93 1cc0 5e8e 30c0 62f6 28bf 303d 24c0
00000030: bea4 2bc0 d87b 31c0 eafb fcbf 9cf7 d2be
00000040: 48d3 09c0 7f1d 23c0 8046 d1bf 6eae 3ebf
00000050: 32e6 1ebe 8ba8 82bf 1313 3bc0 6f68 38c0
00000060: 7a9e bbbf 7bda 23bf b745 d0bf a996 24be
00000070: aafd 26bf b297 31bf 7596 ccbf ad39 51bf
00000080: 423e 35c0 c368 22c0 a2a1 9bbf c288 86bf
00000090: a1aa 17c0 bf48 28c0 893f ffbf 285e 20c0
000000a0: 46c6 f5bf 9741 27c0 f02b 0bbf 540d 04c0
000000b0: 7eda 23c0 c482 bcbf 9bcb 33be a624 0ac0
000000c0: 7c56 2dc0 5c31 d7bf 80bb 29c0 56c0 66be
000000d0: 23ff 32c0 4acf 983e 13e1 38c0 e226 cfbf
000000e0: eaf4 31c0 0215 14c0 9c0c 20be 3cc0 32c0
000000f0: 4533 2cc0 6ecc 3cc0 2f81 d2bf e432 13c0
00000100: b5dd 04bf c0b8 a6bf 20fa 3ac0 7f6f 30be
00000110: 4af9 30c0 e4f9 e4bf b6b8 32c0 6144 23c0
00000120: edfb 2dc0 233d 8abf abce 2dc0 8a7b 16c0
00000130: 7ad6 73bf 7cde 0fc0 a482 1fc0 5a3d 0fc0
00000140: d397 38c0 ccc8 f8bf c301 08c0 2413 00c0
00000150: e053 b1be 904b e6bf d8e8 7abe 68d0 0cc0
00000160: 8df3 13bf 771b 8cbf 5572 2dc0 63ac dcbf
00000170: c845 39bf 7658 26c0 2541 b3bf 0e79 d2bf
00000180: b859 34c0 0eba 82be a743 3bc0 9eb2 30c0
00000190: 6dce 6e3d efde 96bd 0599 a0bd cd6e a7bc
000001a0: dadb 13bc dab7 b63d fd2f ca3d ed70 b03d
000001b0: 1a02 e13b d32e 3ebd 6dd2 2b3d e0a8 483d
000001c0: b7c5 b1bd cdd4 2fbc 9db8 a33d 9a3d a0bd
000001d0: 8d94 80bd ffb8 883d 9a7c a4bc 7091 2cbd
000001e0: db9c c63d 1766 b23d 00bc a2bd 978e 0d3d
000001f0: 7a05 7c3d 9acd 5c3d 7adc f4bc 336f 9dba
00000200: 9a39 1bbc e016 d03c 0077 4d3c 7d35 8e3d
00000210: e7a3 a43b 00b6 b03d 67b5 a7bd 8b14 bc3d
00000220: 736e 2b3c fd93 9cbd e732 9e3c ba46 91bc
00000230: 6b4a ae3d aa37 8cbd e30e 4bbd 1772 95bd
00000240: 9344 f4bc b391 1fbd 6a09 8bbd cdcc 473d
00000250: aa48 95bd 4d05 b0bc 07e6 d63c 4db0 683d
00000260: 8aea 13bd 47cb 66bd 07cc 303d e78e 85bc
00000270: 4ac7 0abd 1a22 ed3c 4da4 5d3c f066 35bd
00000280: cd7f 433c 1a4e a93b 4722 7f3d fd1a 29bd
00000290: 12c4 82bd 7368 983d 0d7a b2bd da91 76bc
000002a0: 47f8 30bd 673f 31bc 939a b83d 670c d63b
000002b0: d5e3 9a3d e3a6 603d 2b78 a53d e8e0 93bd
000002c0: 732e c4bd da7d f3bc 6881 bf3d 5006 943d
000002d0: f73d 9a3d 0afd 0bbd 6213 cb3d 9a4e d0bc
000002e0: 9acb 46bd f3f4 59bd 9016 993d a08d 4d3d
000002f0: 8710 debc a703 aebd 33d1 8cba e5c0 90bd
00000300: 73d0 34bd 4d42 c43c 6017 bd3c 03b8 7b3d
00000310: 7328 d43c bb40 bbbd 1778 843d 6742 ff3b
00000320: 39a2 f0bc 0b37 0a3c 2b6a 803c 0390 d93b
00000330: 2459 913d cf90 cc3a 4890 bf3c 889c 1b3d
00000340: 0087 e53c 956d 88bb d11b ffbc 69e7 1cbd
00000350: 4933 ba3c e2e7 38bd 7846 3dbd 20df 283b
00000360: fc9f 563c 21ed 673d 85ea 03bd fbfb 563d
00000370: fdd8 6cbc 44d1 243b f252 103d a45f 9b3d
00000380: f9f9 6bbc 55f5 143c c86d 573d 1ebe b03c
00000390: a890 34bc 189c 8abc 3823 053d 2d7d 65bc
000003a0: d562 1e3d 117c bbbc daa6 a23b 5c23 29bd
000003b0: a491 6a3c df98 9fba c57b 08bd 2439 6d3c
000003c0: ee12 273d 673c d63b 066a 03bd d5d5 973d
000003d0: 1176 32bc c313 023d 632a f53b 6873 9a3d
000003e0: f59a 873c 86c3 533c f6ae ab3c 4b83 a5bd
000003f0: 435e 1bbd 9d29 de3b 91d0 3b3d 4760 1cbd
-2.253876 -2.7234304 -2.3990788 -2.9693515 -1.3032439 -1.4169157 -2.196259 -1.1655931
-2.446529 -2.7586894 -0.6600095 -2.5662346 -2.68193 -2.7731838 -1.9764378 -0.41204536
-2.1535206 -2.5486753 -1.634964 -0.7448491 -0.155175 -1.0207685 -2.9230392 -2.8813741
-1.4657738 -0.6400525 -1.6271275 -0.16073097 -0.6523081 -0.69372094 -1.5983416 -0.8172863
-2.831925 -2.5376441 -1.2158701 -1.0510485 -2.3697894 -2.62944 -1.9941264 -2.5057468
-1.9201133 -2.6133783 -0.5436392 -2.0633135 -2.5602107 -1.4727407 -0.17558138 -2.1584868
-2.7084036 -1.6811938 -2.652069 -0.22534308 -2.7968223 0.2984565 -2.8887374 -1.6183741
-2.7805734 -2.3137822 -0.1562981 -2.792983 -2.6906292 -2.9499774 -1.6445674 -2.299981
-0.519008 -1.3025131 -2.9215164 -0.17230032 -2.7652154 -1.788876 -2.7925239 -2.5510485
-2.7185013 -1.0799907 -2.715739 -2.3512902 -0.9524914 -2.2479544 -2.4923487 -2.2381196
-2.8842666 -1.9436278 -2.1251075 -2.0011683 -0.34634304 -1.799181 -0.24502885 -2.20022
-0.57793504 -1.0945882 -2.7101033 -1.7240108 -0.723721 -2.5991492 -1.4004256 -1.6443193
-2.817976 -0.25532573 -2.9260042 -2.760902 0.05830233 -0.0736674 -0.07841686 -0.020438576
-0.009024585 0.08921786 0.09872434 0.08615289 0.0068667056 -0.046431374 0.041948725 0.048989177
-0.08680289 -0.010731888 0.079941966 -0.078242496 -0.06278334 0.0667591 -0.020078946 -0.042130888
0.096978866 0.08710878 -0.079460144 0.034559812 0.06152866 0.053907014 -0.029890288 -0.0012011289
-0.0094741825 0.025401533 0.012540579 0.06943796 0.0050244215 0.08628464 -0.081888966 0.09183606
0.010463345 -0.07645414 0.019311382 -0.01773392 0.08510288 -0.068465546 -0.049574744 -0.072971515
-0.029817855 -0.03895731 -0.06788905 0.048779298 -0.0728925 -0.021486903 0.026232732 0.05680876
-0.036112346 -0.056346204 0.043163326 -0.016303493 -0.033881463 0.028946925 0.013527942 -0.044287622
0.011932326 0.005166781 0.06228855 -0.041285504 -0.06385054 0.07441797 -0.087146856 -0.015049422
-0.043205526 -0.010818339 0.09013858 0.00653224 0.07562987 0.054846656 0.08079561 -0.07220632
-0.09579172 -0.029723097 0.09350854 0.072277665 0.0753135 -0.034176864 0.09915806 -0.025428105
-0.048534013 -0.053212117 0.074750066 0.050183892 -0.02710749 -0.084967904 -0.0010743499 -0.07068042
-0.044144105 0.023957396 0.023082435 0.061454784 0.025898194 -0.09143206 0.06468218 0.007789898
-0.029374229 0.008435975 0.015675625 0.006639482 0.0709708 0.0015607121 0.023384228 0.037991077
0.028018475 -0.004163454 -0.031141194 -0.038306627 0.022729533 -0.045143016 -0.046209782 0.0025767758
0.013099667 0.056622628 -0.032206077 0.0524864 -0.014456031 0.0025149146 0.035235353 0.075866014
-0.01440286 0.009091695 0.05259493 0.02157503 -0.011020817 -0.016920134 0.03250429 -0.014006895
0.038668472 -0.022886308 0.004963738 -0.041293487 0.01431695 -0.0012176296 -0.03332116 0.014478955
0.040789537 0.0065379622 -0.032083534 0.07413832 -0.010892407 0.031757127 0.0074818595 0.07541543
0.016553381 0.012925034 0.020957451 -0.08081683 -0.03793169 0.006779863 0.0458532 -0.038177755

module.enc_lstm.bias_hh_l0_reverse f4 [400]
00000000: 0124 12c0 cb02 2ec0 7fa0 14c0 26a0 35c0
00000010: 83d2 adbf c518 b7bf 0f19 10c0 4a33 98bf
00000020: 3343 15c0 9bd4 26c0 93eb 25bf d92e 27c0
00000030: 5087 2dc0 a528 36c0 e66f fabf e461 dbbe
00000040: 5f7c 0bc0 71c2 2bc0 4323 bebf 4a63 52bf
00000050: 2e64 b5bd ceb0 84bf dcf0 3bc0 1167 35c0
00000060: 06d9 b5bf e7b8 02bf 56e1 c5bf 6404 8ebe
00000070: d610 36bf 737f 4cbf 77fd c4bf 38f9 35bf
00000080: e8b9 38c0 043d 1ac0 06d6 a9bf ba8c 8bbf
00000090: 01bd 1dc0 5f66 25c0 650e 00c0 cd57 1bc0
000000a0: abd1 f3bf bbe6 22c0 037c f4be 5aee ffbf
000000b0: 102c 1fc0 95f7 b9bf 810f 05be c994 04c0
000000c0: d027 2cc0 6ba1 d2bf bb44 1fc0 40d3 c5be
000000d0: 8f37 2ec0 7e4e 973e c915 3fc0 6ea9 b7bf
000000e0: f38a 29c0 b099 14c0 37af dbbd 0eaf 32c0
000000f0: 13ac 24c0 bef9 3ec0 379c d6bf b224 0fc0
00000100: f350 e1be dffc 9fbf c7df 37c0 8ce1 93be
00000110: 8d54 34c0 a5cc ecbf bf8f 36c0 2029 28c0
00000120: 4c2b 23c0 d3e7 85bf 3354 33c0 9bb4 16c0
00000130: 7455 68bf efc3 16c0 28a9 25c0 21ca 08c0
00000140: 929d 40c0 a86a f8bf d607 0cc0 b520 08c0
00000150: c97e bfbe 51c3 f7bf ded6 62be 25ed 0ac0
00000160: 6045 26bf 0a4a 90bf 19fc 33c0 bb85 d9bf
00000170: ef81 38bf 728c 25c0 b0fc b5bf a2fd c7bf
00000180: c75c 33c0 b7bc b1be 761c 3dc0 6a0b 33c0
00000190: fae0 b93d 7aa2 e23c f5a2 a03d 2092 c63d
000001a0: c031 59bc 0f41 b5bd a0cb 4a3d ddae 163d
000001b0: 5783 203d 5f81 a23d 7301 1dbd a0bc b73d
000001c0: 2750 df3c dde6 8bbd c726 073d e7f8 933b
000001d0: a7a2 62bd 3816 b33d 0032 b8bb 2360 313d
000001e0: b3bd 41bd d87c 88bd 43f5 8b3d 2364 1b3d
000001f0: fda5 6cbd 9a6a d9bc 3340 0e3b a7cf 2cbd
00000200: 17be 013d 9da8 9ebd 1d54 173d d70e 60bd
00000210: 63d9 313d 9a89 c1ba 277d b73c 4324 623d
00000220: 77ec 923d fa5e 063d a76a ed3c 0000 c8b8
00000230: cd6c 003a 8b81 b43d f0a8 733d 4734 07bd
00000240: 8b07 85bd c0fc 9c3c 5823 95bd c2c1 8ebd
00000250: adab db3c 9d68 9c3d f22e 80bd 00a0 e6bb
00000260: 3a01 93bd 3b25 be3d 10bd 8a3d a2df b33d
00000270: 80fb 8c3b 3307 adbc 778f 0e3d 232a a33d
00000280: 9d1b 80bd 3301 2fbb 88d3 9cbd d82f b33d
00000290: 3dd8 37bd 3f67 afbd f3a6 7dbd e726 f4bc
000002a0: dd6e 6a3d a7a4 f2bc 4d06 8a3b 70ee 74bd
000002b0: e737 713c f3fa 743d 534f acbd 02d7 8e3d
000002c0: 8095 7a3d 0dda 92bd 3047 003d 28a6 893d
000002d0: 8f03 bc3d 40a3 4cbc 335b 26bd a7c8 333d
000002e0: 68e7 ba3d c75d b33c 60bc a33c 9da2 9f3d
000002f0: 8a38 3bbd 4d1b 1d3c 758d 90bd 1f60 bc3d
00000300: 728a 9f3d 78d4 c3bd 676f bb3b c3f6 433d
00000310: a325 8c3d 7378 22bd 4de4 d03b 90f8 253d
00000320: 7241 973c 1be5 0dbc bcd4 89bc 8afc 9abb
00000330: 4554 9cbd ab1a d1ba 1309 bfbc 4e9d 1bbd
00000340: b48c e8bc cc55 613b 784a 0d3d 103d 1d3d
00000350: 0732 adbc f919 303d d68e 3d3d 7234 2fbb
00000360: eb2c 40bc 989f 68bd 7a31 2f3d c94f a3bc
00000370: 1b52 3a3b 0f07 c0bc e30a 0ebd 835e 97bd
00000380: 8df5 a53c 0811 073c 8aae 56bd 029c 99bc
00000390: f7d9 163b db67 c33b 353a 05bd 5f79 1e3d
000003a0: 09d3 23bd 040b c03c 1b2d a2bb 9d58 083d
000003b0: 92fd b1bc e30e 113b c027 083d 2c2a 6bbc
000003c0: b714 48bd 721d f0bb ebb2 713d cd07 63bd
000003d0: e003 34bc c1de d1bc 4399 ef3c d7f1 6b3d
000003e0: e6e2 85bc 92cb c9bd f5e8 acbc cec6 bd3d
000003f0: d251 1b3d cbd5 0bbc 1432 3bbd f629 00bd
-2.2834475 -2.7189205 -2.322296 -2.8378997 -1.3579868 -1.4304434 -2.2515295 -1.1890652
-2.3322265 -2.6067264 -0.6481258 -2.6122344 -2.7113838 -2.8462307 -1.9565399 -0.42848122
-2.179466 -2.6837428 -1.4854511 -0.82182753 -0.088569984 -1.0366457 -2.936576 -2.8344157
-1.4206855 -0.5106339 -1.5459392 -0.27737725 -0.7111944 -0.7988197 -1.5389851 -0.710834
-2.8863468 -2.409974 -1.326844 -1.0902321 -2.464661 -2.5843732 -2.0008786 -2.427234
-1.904836 -2.5453327 -0.47750863 -1.9994614 -2.4870644 -1.4528681 -0.12994196 -2.0715811
-2.68993 -1.6455511 -2.48857 -0.38637733 -2.722141 0.29552072 -2.9857047 -1.4348581
-2.6491058 -2.3218803 -0.10726779 -2.7919345 -2.5730026 -2.983993 -1.6766423 -2.2366147
-0.44007072 -1.2499045 -2.8730333 -0.28883016 -2.8176606 -1.8499953 -2.8525236 -2.62751
-2.5495176 -1.0461372 -2.802014 -2.3547733 -0.9075539 -2.3557088 -2.5884495 -2.137337
-3.0096173 -1.9407549 -2.1879783 -2.1269963 -0.37401417 -1.9356481 -0.22152278 -2.1707242
-0.6494961 -1.1272595 -2.8122618 -1.6993936 -0.7207326 -2.586697 -1.4217739 -1.5624278
-2.8025377 -0.3471429 -2.954862 -2.7975717 0.09076114 0.027665365 0.078435816 0.0969584
-0.01325649 -0.088502996 0.0495106 0.036787856 0.039187755 0.07934832 -0.03833146 0.08971524
0.0272599 -0.06831143 0.032995965 0.0045157555 -0.0553309 0.08744472 -0.005621195 0.043304574
-0.047300052 -0.06664437 0.06833889 0.037937295 -0.057775486 -0.02654009 0.0021705746 -0.04219022
0.031675424 -0.07747004 0.03694545 -0.054701652 0.043420207 -0.001476574 0.022398544 0.055210363
0.07174008 0.03280542 0.02898152 -9.536743e-05 0.0004899025 0.08813771 0.059487283 -0.03300884
-0.06495579 0.01916349 -0.07282132 -0.0697055 0.02681526 0.07637141 -0.06258954 -0.0070381165
-0.07177968 0.09284445 0.06774342 0.08782889 0.004302442 -0.021121597 0.034804787 0.07967021
-0.06255267 -0.0026703596 -0.07657534 0.0874936 -0.044883955 -0.085646145 -0.061926793 -0.029803706
0.057234634 -0.029619528 0.004212177 -0.059797704 0.014722801 0.059809636 -0.084135674 0.06974603
0.06117773 -0.07170496 0.03131789 0.06721145 0.09180366 -0.012490094 -0.040614318 0.04389253
0.091261685 0.021895302 0.019987285 0.07794688 -0.045708217 0.009589029 -0.07058231 0.09198021
0.07790078 -0.095620096 0.0057200673 0.047842752 0.06843116 -0.03966565 0.006374872 0.04052025
0.018463824 -0.00866058 -0.016825072 -0.004729812 -0.07633261 -0.0015953382 -0.023319757 -0.037991814
-0.028387405 0.0034383414 0.034494847 0.038388312 -0.021142019 0.04299352 0.046278797 -0.002673414
-0.011729459 -0.056792825 0.042771794 -0.019935505 0.0028430286 -0.023440866 -0.03467835 -0.073910736
0.02025869 0.008243807 -0.052412547 -0.018751148 0.00230181 0.0059633083 -0.032526214 0.038689967
-0.03999618 0.023442753 -0.0049492246 0.033287633 -0.021727357 0.0022134117 0.033241034 -0.014353316
-0.04884788 -0.007327729 0.05900852 -0.05542736 -0.010987252 -0.025618913 0.029247886 0.057603683
-0.016343545 -0.09853281 -0.021107176 0.092664346 0.037919827 -0.008534859 -0.045702055 -0.031290017
