model_param/model_param_best.pt (torch, 609430 bytes, 22 tensors)

module.enc_lstm.weight_ih_l0 f4 [400, 18]
00000000: 2022 26bf 2644 533f 8017 08bf c6d7 fb3e
00000010: 13b7 92bf 85fc 0fc0 50bd 743f e2d8 b8bd
00000020: e86c 023f 6315 11bf 6325 5d3f e962 eabe
00000030: dc1d e13f 9367 8fbe 3e9b 9a3f 6f80 6ebf
00000040: 9ac1 483d f6db 60be ca61 c83e fffd 0fbe
00000050: 7954 89be 1352 18bf ec30 8dbf 521e a23d
00000060: 999d b4be 69fa 97bf 8875 9cbe a71c 0e3f
00000070: d606 19bd 4aca 9abe 02bc 56be 85e0 6bbf
00000080: a5ff d03e 3fc7 e63d 1d89 ab3f c66b af3e
00000090: 003b 073d e7e6 77bd 5055 c3be 6014 153e
000000a0: 27e4 cbbf 2f90 4b3e 48a3 ad3d 3fb1 fabf
000000b0: 31e6 78bf 6595 ac3d e26c 37bd e21e 5bbe
000000c0: b9ab cb3e c023 f4bf a5fb 963d 7666 48be
000000d0: 0130 ee3f 5785 803f e41d afbd b785 9c3e
000000e0: 9953 b5be 5472 51bf feb0 e1bf bcc4 ce3e
000000f0: b121 0ebf d757 c9bf b991 0cbf d019 29be
00000100: 2dfd 7a3e 84aa 8ebe 8522 59bf 3235 febf
00000110: 95e6 e4be 909c 1c3f 6fad c63f 0697 173f
00000120: 6982 d33e 15fc 6bbb ec46 44bf 117e 39bf
00000130: b1ba f5bf cbda c53d aa77 e03e 3288 01c0
00000140: afde ffbe 70d5 ce3e ab20 923c 3532 22bf
00000150: 592f 6abf cddf 80bf da00 643f 166a 05bf
00000160: e2b5 fe3f abe3 043f 6fde fb3d 7d9c a43d
00000170: 1a3a e43c 2736 f6bf c08a a7bf 3ba1 50be
00000180: 73f7 54bf 4dfe b2bf 4890 b5bf cfbe 48bc
00000190: 0f0d 7c3e 0a96 1fbe 440f bebf a236 03bf
000001a0: 7b33 9abf f48d 783f 4002 bd3f 9467 b13f
000001b0: 0c5f c9bd 3e6b 48bd a563 bcbd 2119 e4be
000001c0: fa2a e0bf b24f 313f be79 e03c 3cd4 dcbf
000001d0: 009c cabe fc3c 123d 0e65 48bd 80f5 d43c
000001e0: 0425 0fbf 328b bfbf dde0 b43e 77ad 4b3d
000001f0: 3fbf f63f 9d98 8e3e f67f d7be 1ff1 11bf
00000200: 3f00 89bd 71d7 aabd 22b7 693e 21f8 afbe
00000210: dee0 78be dbc6 b5bb a975 abbe 356e 07bf
00000220: 21ed 16bf 36ef 8dbd 7e82 a1be 59c2 673e
00000230: 0dc0 363c 1665 da3e a8f5 ba3d 2a62 7c3e
00000240: 8332 c8bb 50ef 4fbf 5896 63bf 31e4 093f
00000250: 520a 48bf 7023 733f daba 88be f472 1bc0
00000260: 12b1 52bf e314 df3d 92e9 30bf 2568 68bf
00000270: 3707 133e 9705 64bf a03b 803f d2f3 763e
00000280: 0db7 2140 9a01 373f 2465 bdbd 99a6 123f
00000290: 2520 8e3f 56f0 ce3f cd31 983e e10f 733c
000002a0: d282 553f 2f76 96be 7f24 12bf 84d4 48bc
000002b0: 32ab 133f 77b0 8c3f 2427 903d 9a92 d63e
000002c0: b713 28bf 1a9d 85bf 6fdc 213e 329d e73e
000002d0: 67bd 5ebf ac39 013f 80d3 1e3f 73f9 84c0
000002e0: cd90 fa3d 29a3 ec3e c55c f1bc 9abc 5fbe
000002f0: ea0c 85be 3411 73bf 33a4 083f c811 0f3f
00000300: 093b 1640 499d 00bf 7faf babf 1696 593e
00000310: d3e1 403e 2733 7e3e e25b 843e 25bc 8bbe
00000320: bcc9 03bf 00af a3bf 7036 e3bf f17d fdbe
00000330: e9f8 86bf 919c 6ebf aad4 08bf 570f 313e
00000340: 2ead 13bd c7e6 4cbe 962d 3cc0 1784 4fbf
00000350: 619c a53f 846f 753f bce4 533f 681d f73e
00000360: 2b78 3fbe 5dcd 9dbe 3c80 15bf 6bd7 603b
00000370: 3584 a6bf a9c9 023f 6388 ecbd 0c29 01c0
00000380: 66b1 eebe b3fb a8bd fc09 1fbe cd46 82be
00000390: 124f d53d e8fe a4bf 2e6a 3d3e 3408 273e
000003a0: 4a5c f33f 67be 943e 3623 b63e b36b 043d
000003b0: a27c e3be 213e b7be ff9d c4bf b5cb fc3e
000003c0: ba2d 28be f986 d9bf acbe 3ebf 9370 9f3e
000003d0: 3164 74bd fa56 a0be 9e5b 9bbe 3c5e 9cbf
000003e0: 24b8 c93e 7c6c 753e 6ea9 d83f a7b5 293f
000003f0: 47dc 953c 9e94 2abf a2ed cebe 46a2 913e
-0.6489582 0.8252586 -0.5316086 0.4918806 -1.146212 -2.2497876 0.9560137 -0.09025742
0.5094743 -0.5667326 0.8638517 -0.45778587 1.7587237 -0.28008708 1.2078626 -0.93164724
0.049012758 -0.21958908 0.39137107 -0.14061736 -0.2682226 -0.59500235 -1.1030555 0.079159394
-0.35276487 -1.1873294 -0.3055842 0.5551247 -0.037360035 -0.3023246 -0.20970157 -0.92139465
0.4082004 0.11268472 1.3401219 0.34261912 0.03301525 -0.06052294 -0.38151026 0.14558554
-1.5929002 0.1987922 0.08478409 -1.9585341 -0.97226244 0.08426932 -0.044781573 -0.213985
0.3977945 -1.907341 0.07372216 -0.19570336 1.86084 1.0040692 -0.08550623 0.30570766
-0.35415342 -0.81815076 -1.7632139 0.4038447 -0.5552016 -1.5729932 -0.54909855 -0.16513753
0.24510641 -0.27864468 -0.848183 -1.9859984 -0.4470717 0.61176395 1.5521678 0.5921482
0.41310433 -0.0036008407 -0.7667072 -0.7245799 -1.9197599 0.09660872 0.43841296 -2.0239377
-0.49974582 0.40397215 0.017837843 -0.6335786 -0.91478497 -1.0068299 0.890638 -0.52115
1.9899256 0.51909894 0.12298285 0.0803766 0.027859736 -1.9235276 -1.3089218 -0.20374005
-0.8319008 -1.3983856 -1.4184656 -0.012252524 0.24614356 -0.15584579 -1.4848409 -0.5125524
-1.204696 0.97091603 1.4766312 1.3859735 -0.09832582 -0.0489304 -0.09198693 -0.44550422
-1.7513115 0.6926223 0.027401801 -1.7252269 -0.39572144 0.03570269 -0.0489245 0.02599597
-0.55915856 -1.4964354 0.35327807 0.049725976 1.9277114 0.2785081 -0.42089814 -0.57008547
-0.066895 -0.083418734 0.22823766 -0.34368995 -0.2430453 -0.005547387 -0.33488205 -0.5290254
-0.5895558 -0.069303915 -0.3154487 0.22632731 0.011154187 0.42655247 0.091288865 0.24646822
-0.006109537 -0.81224537 -0.8890128 0.5386382 -0.7814075 0.9497595 -0.26705056 -2.4288912
-0.8230144 0.10892656 -0.691064 -0.9078391 0.14358221 -0.8907103 1.0018196 0.24116448
2.5267975 0.7148682 -0.09247807 0.5728546 1.110356 1.6167095 0.29725495 0.014835329
0.8340274 -0.29387042 -0.5708694 -0.012257699 0.576831 1.0991353 0.070387155 0.41908723
-0.6565508 -1.0438569 0.15806745 0.45237118 -0.87007755 0.50478625 0.62041473 -4.1554503
0.1223465 0.4621823 -0.029463181 -0.2184929 -0.25986415 -0.94948125 0.5337555 0.5588651
2.3473532 -0.5024 -1.4584807 0.2124866 0.18836145 0.248242 0.2585135 -0.2729198
-0.514797 -1.2787781 -1.7750988 -0.49510148 -1.0544711 -0.9320765 -0.534495 0.17291008
-0.03605383 -0.2000991 -2.9402823 -0.8106093 1.2938348 0.95873284 0.82770896 0.48264623
-0.18698184 -0.30820742 -0.58398795 0.0034308087 -1.3009096 0.5108896 -0.11549451 -2.0181303
-0.4661972 -0.08251133 -0.15531152 -0.25444642 0.10415472 -1.2890291 0.18497536 0.16311723
1.9012539 0.29051515 0.3557374 0.032329272 -0.44431025 -0.35789588 -1.5360717 0.49374166
-0.16423693 -1.6994315 -0.7450969 0.31140575 -0.059665862 -0.31316358 -0.30343336 -1.2216258
0.393983 0.23967165 1.6926706 0.66292804 0.018293513 -0.6663302 -0.40415674 0.28444117

module.enc_lstm.weight_hh_l0 f4 [400, 100]
00000000: d592 ee3f edf7 193f 53b5 d7bd 6472 18be
00000010: bdee 64be c910 6fbf 5a12 c8bd 3cda 5dbd
00000020: 9d67 6ebd 0367 333f cc4f 4b3f 4822 813f
00000030: e493 b53e 4d20 ebbd 40f0 0c3e 3f31 b7bd
00000040: 6571 43c0 0e89 9bbe 9888 08c0 f298 72be
00000050: a866 02be b523 8abc 3b46 2e3e d2c9 a1bd
00000060: 58bb af3d ec10 0cbf 924c 683f e8a6 ce3e
00000070: c75b 883e 1a66 8e3d fad1 1c3e 5893 31c0
00000080: 0f60 61be e84b cebd 06d2 b3be 8a26 04be
00000090: 5b07 933d da09 3d3f 0dd6 38bf f0e1 4d3e
000000a0: 7eb9 65bf f1e8 383f 7fa2 b3bf 5f18 aabe
000000b0: adf9 763f 81ff 1dbe 9693 60be 3599 0cbf
000000c0: c2ba c53e c2e6 bdbf 5ff0 1240 e977 3d40
000000d0: 881d 95be f331 f93e 9e54 f13e 2d65 2a3f
000000e0: aa94 b9be 737f 3fbe 29e4 ea3e 6f2a 5fbe
000000f0: 097b 06be 66ed 25be c1b5 bfbe a185 66be
00000100: 1cbf 493f cea6 0dbe c77b 92be 0bf8 60bc
00000110: 1d92 2ac0 712d 273f d5d8 b33e a22d 313e
00000120: afa3 91be a823 713f df26 2040 d6a0 d4bf
00000130: ff13 01be af5c 8ebf 7f43 dcbe 7ad4 813f
00000140: b53c ccbe 887f 443e ce68 ed3e 8030 01bf
00000150: 5791 a63f 9967 e8be f041 c4be 7dff aebe
00000160: 7eaf a53d 41a8 0d3f 1997 863e f1d9 1fbf
00000170: 2407 6abe 6a6d 953e c944 b33e 1a29 e73d
00000180: c13c 0f3f 40bf 393f 1ecf c9bf 6c3b 24be
00000190: af45 923f 3909 f53e a8e2 d03e a69d 8b3e
000001a0: 6eb2 eb3e f9e1 f4be 36e9 ecbc b592 973f
000001b0: 8b09 b2be d5f7 cfbe 9900 a8be b0d3 6e3d
000001c0: 6e7a a53e ae55 da3d 3966 af3e 0cef 89bc
000001d0: 6fd3 4bbf 5a68 ce3e 5581 74bf c688 19bf
000001e0: 915a 70be 952c ba3e f3fa 72be 6891 fcbe
000001f0: dea8 b6bd 9e73 3cbe b647 f83e 9d98 ee3e
00000200: d5c7 b0bd f8fe 5ebf a981 ebbe dfd6 023f
00000210: 66a5 2e3e fe84 3dbe 1945 333f ae33 323e
00000220: 75c4 5dbe e824 8e3e d4dc a13e caa0 babe
00000230: c42d 35bf 9ed7 8e3d ef21 6cbe 9f24 8b3e
00000240: 47cc ebbe 9d23 02bf ed36 ef3e 7dfb 2abe
00000250: c417 a5be 25d7 1a3e 7323 eb3c 11f0 98bd
00000260: cfdb 22bf 691e 4e3e 011c c53e 8fd5 0f3f
00000270: 2f8c 5a3f 8b25 86be 08ef b3be b900 b1be
00000280: f407 07bf c9d7 b3be 1cb5 f63c 47fe a6ba
00000290: c390 533f abc7 34bd abf4 85be 8d32 b1be
000002a0: cee0 fabe 4a52 4f3e f494 a23e 34db 373f
000002b0: 9e5d 18bf 4cac 543e 8e45 113d 98b0 03bf
000002c0: 57cc 05bf ec52 24be eeae efbe 51e2 af3e
000002d0: 08df 783e 5863 48bf 9335 1abf 9911 18bd
000002e0: eeb7 debd bf1a 97be 8961 0a3e fefd 2d3f
000002f0: ad9b 4c3d e063 f53d 0174 05be 895c 3d3e
00000300: 3f96 ddbe 9479 943e eb0b e2be 0676 943f
00000310: 03d3 663e ab5a 14bf 7f95 7bbe a32d 93be
00000320: 0018 6d3f 66b7 2fbe e7db 633e ef3e 07be
00000330: 45bd f03e 23ad 1cbe 7863 95bd cc73 8f3f
00000340: 75e3 2fbe 19d2 61bf 622d 37bf 8480 fd3e
00000350: 8ae7 f8bd ce9d bdbe 7c8b 77be ba5a ecbe
00000360: 7542 7e3e b035 133e 2f72 0fbf 2e8a af3c
00000370: 4709 9bbe 15d3 bc3e bda3 65be 5a9c ea3d
00000380: e75d ccbe bce3 8d3e 59f8 b5be e5bf 6e3f
00000390: e6f6 0cbe 3e9f 14bf 08d5 05bf fdfc 933c
000003a0: 0fce 813d f325 453e 38ba 703f c228 21bd
000003b0: 0eee dabe c6ce a0bc 8f4b a7be b4c5 e23d
000003c0: 7e8f 4d3e ff20 24bf 19cc 99be 5627 4e3e
000003d0: 5d68 6e3e 032b f2bd d1d2 24be 2310 debe
000003e0: 8c8e 2d3e 6445 723d 9e21 d1bd 91d4 be3e
000003f0: 2cbf 7ebd 96b1 353e 15c1 743e ef8a c43d
1.863856 0.6014393 -0.10532632 -0.14887387 -0.22356696 -0.9338499 -0.09769125 -0.054163203
-0.058204282 0.7007906 0.79418635 1.0088587 0.35464394 -0.1148077 0.13763523 -0.0894494
-3.053796 -0.30378002 -2.133337 -0.23691157 -0.12734473 -0.01686273 0.17018978 -0.07899822
0.08580655 -0.5471332 0.9074184 0.40361714 0.2663252 0.06953068 0.15314475 -2.7746181
-0.220093 -0.10073072 -0.35121173 -0.12905326 0.07179137 0.7384316 -0.72201616 0.2010572
-0.89736164 0.7223044 -1.4033965 -0.3322172 0.96474725 -0.15429498 -0.219313 -0.54921275
0.38619047 -1.4836047 2.295921 2.9604437 -0.29124093 0.4867092 0.4713487 0.6656063
-0.36246234 -0.18700962 0.45877197 -0.21793531 -0.13132872 -0.16203842 -0.37443355 -0.22511913
0.78807235 -0.13833162 -0.2861006 -0.013731013 -2.665168 0.65303713 0.35126367 0.17302564
-0.28445193 0.9419503 2.5023725 -1.6611583 -0.12605284 -1.1122035 -0.43020245 1.0142968
-0.39890066 0.19189274 0.46369022 -0.5046463 1.3013104 -0.4539154 -0.38331556 -0.34179297
0.08090113 0.5533486 0.26287153 -0.6244193 -0.22854286 0.2918504 0.35013416 0.112871364
0.5595208 0.7255745 -1.5766332 -0.16038293 1.1427516 0.478586 0.40797925 0.27268714
0.4603457 -0.47828653 -0.028919797 1.1841646 -0.34772906 -0.40618768 -0.32812956 0.05830735
0.3231997 0.10660873 0.34257677 -0.01683762 -0.796195 0.4031399 -0.95509845 -0.59974325
-0.23472048 0.36362138 -0.23728542 -0.49329686 -0.089189276 -0.1840348 0.4849221 0.4660081
-0.08631865 -0.871078 -0.4599736 0.5110912 0.17055282 -0.18507764 0.7002731 0.17402527
-0.21656974 0.27762532 0.3161379 -0.36450797 -0.7077296 0.069747195 -0.2305982 0.27176377
-0.4605429 -0.5083559 0.46721593 -0.16697498 -0.32244694 0.15121134 0.028703427 -0.07467664
-0.6361665 0.20128788 0.38497928 0.5618524 0.85370153 -0.26200518 -0.35143304 -0.34570864
-0.5274651 -0.35125569 0.030115657 -0.0012740575 0.82642764 -0.04413573 -0.2616323 -0.3460888
-0.48999637 0.20246235 0.31754267 0.7181885 -0.5951785 0.20768851 0.035466723 -0.51441336
-0.5226492 -0.16047257 -0.46813148 0.34352353 0.2430383 -0.78276587 -0.60238 -0.037126157
-0.108749256 -0.29512593 0.13513769 0.67965686 0.04995315 0.1198194 -0.13032533 0.1849233
-0.4327869 0.28999007 -0.44149718 1.1598518 0.22541432 -0.5795085 -0.24568747 -0.28745756
0.92614746 -0.17159805 0.22251855 -0.13207601 0.470194 -0.15300421 -0.07294363 1.1207213
-0.17176612 -0.8821121 -0.71553624 0.49512112 -0.121535376 -0.37034458 -0.24174303 -0.4616297
0.24830039 0.14375949 -0.56033605 0.021428194 -0.30280516 0.36879793 -0.22425742 0.11455603
-0.39915392 0.2771281 -0.35541037 0.9326156 -0.1376606 -0.58055484 -0.52278185 0.01806497
0.06338131 0.19252758 0.9403415 -0.03934551 -0.42759746 -0.019629847 -0.32674834 0.11072865
0.20074269 -0.6411285 -0.30038527 0.20132193 0.23281999 -0.1182461 -0.16096045 -0.43371686
0.16948909 0.059148207 -0.1021149 0.3727155 -0.062194034 0.17743525 0.2390178 0.09596812

module.enc_lstm.bias_ih_l0 f4 [400]
00000000: 94ea a83d d63b fdbf 1138 0bc0 8395 04c0
00000010: 0dc0 00c0 141d 90bf 5a72 f9bf a67e 543f
00000020: 0a2b 10c0 8c3c 10be b6f0 23be 5bc2 b5bf
00000030: 6cee 0dc0 c106 f8bf e155 93bf 0557 0dc0
00000040: 913c abbe 6d10 b3bf 949f 36bf 50fa fdbf
00000050: f729 2cc0 af8d fcbf 6b4f 53bf 3b0a 06c0
00000060: f6de 05c0 1791 c1bf 3eec d7bf 7687 b53d
00000070: b9cd 343e e547 d5bf c3d9 ddbf ec3e 5bbf
00000080: 3917 e8bf 40e2 0cc0 2165 cebf 04d7 0ec0
00000090: b03d c0bf 924e a3bf 0ff0 10c0 b8dc 1fc0
000000a0: 6fd3 fbbf c3ef f3be 1c40 54be b035 d5bf
000000b0: 39fe 9ebe 43c9 b6bf 67ab b0bf 65ed 8fbf
000000c0: 6e9b eabf 5f62 44bf 937d 0ebf 6a4b 8dbe
000000d0: 9a87 fdbf 1e22 4fbf 3d79 d2bf 8e03 a4be
000000e0: fa16 42be c00b 1ac0 1b85 19c0 12db 08c0
000000f0: fff5 0e3f 756a a2bf 56c0 86bf 5fe2 e5bf
00000100: 388c 44bf a48c eabf 9db8 0ac0 ae07 80bf
00000110: a332 d9be 72f7 31bf c7ab ebbf 66f9 d7bf
00000120: 6684 dcbf 6726 5fbf d547 d9be 3f06 46bf
00000130: 1e26 0dc0 e483 35bf 28f8 0ac0 0c33 46be
00000140: 4f37 0ac0 eb31 ffbf 2ebe d5bf bea5 08c0
00000150: 4253 b3be 3691 d7bf eeb4 91bf 1289 83be
00000160: 3fd9 f1bf 5997 f5bf 33ba c8bf 6f77 d3bf
00000170: 86dd 50bf 8816 0fc0 5230 d7bf ab89 903e
00000180: 3c24 d6bf 0126 8dbe 8da0 39be 63d0 05c0
00000190: 90bb 073f 2198 48bf fd78 34bf 6419 83bf
000001a0: a717 f2be 56b0 3dbf 8c50 49bf fd2a bf3f
000001b0: 671b 14bf f4fd 243e cccb d83e 4f17 b5bf
000001c0: 5ee4 55bf 1956 89bf 4c1f 39bf 3795 95bf
000001d0: 3444 3b3e 4f2b 76bf 826a 05bf b794 7fbf
000001e0: b076 a7bf 3f41 3fbf ad71 adbf f549 9bbf
000001f0: 44dd 63bf 4878 bbbe a722 43bf bfbb d43e
00000200: 7d34 f63d 15f7 41bf 00c9 39bf 4a9c e4bf
00000210: fb20 8fbf 4127 a1bf 1225 40bf b430 71bf
00000220: 79d7 3bbf 2efa 4ebf 6b5b 82bf 31fb 72bf
00000230: a0ff 6fbf 0ba9 443d 2f31 9c3e 9066 2dbf
00000240: 4b78 13bd ca9f 8ebf 14fb 58bf dba9 2fbf
00000250: e957 b1bf a5b6 56bf b826 8bbe 5d2c e0bd
00000260: 28c9 74bf ac7e 85be 0ceb 75bf 4c0f 9e3e
00000270: a4cc c83e 01b1 5dbf 050e 1abf 9a9a 9cbf
00000280: cf4a 1e3f 813f 48bf 4acd 0abe 4518 6ebf
00000290: bae3 b7bf ef8f d0be d623 5bbf 5a2c debf
000002a0: b1ea cbbe ed7f 613d ef69 eebe 402f 12bf
000002b0: f952 42bf 9a53 4cbc 6115 5abf 805f 02be
000002c0: 8289 87bf 2213 07bf 7dcc a6be e068 083e
000002d0: 94fd e0be f33d 48bf 90e9 40bf 8b7b 7bbf
000002e0: ac52 7bbe c640 45bf c02a 69bf 7a22 96bd
000002f0: a58c fcbe 5abc 4dbf ee9b 07bf 730f 54bf
00000300: c2a4 d0be dc1c 4bbf 0368 80bf cfc1 603f
00000310: 7d3d 5dbf 9e61 d03e bd8b 5f3e c019 a4bf
00000320: 9823 16be d14b 97bd 060d 2bbe 5bc0 933c
00000330: 4c34 11be a957 f93b c237 adbd e499 07bf
00000340: a557 0cbe 94e4 8d3f a256 6b3e 6978 8bbd
00000350: 0228 b1bd 4104 bf3d c0ea cb3d f5d6 343d
00000360: 0caa 9ebd bd3f 8dbd 2f50 d4bd c645 9bbe
00000370: f17e a7bc bd2d a83d d909 8e3e da62 33be
00000380: ea59 d73d f036 fabc 825c 9e3c 5a62 e8be
00000390: ffe2 1cbd de67 12bd 502e 153e 708b b6be
000003a0: 2e6b 4fbd d60e 773e 371c 3dbc 5a5f eebd
000003b0: 2da9 c93d bda9 d6be 6b68 713e 855c 533c
000003c0: ca3e 2fbb a828 95be 9cf1 933e b779 01be
000003d0: b21d 40be 5ee2 3bbd 76cd 4d3e f3e6 c83e
000003e0: 74c0 3bbd 0853 0f3d 47b8 d4bd 8d55 cfbc
000003f0: c547 e23e e9fb 63be 85ef 67be 5275 5ebe
0.08247867 -1.9783885 -2.175297 -2.0716255 -2.0117218 -1.1258874 -1.9488022 0.8300575
-2.252627 -0.14085597 -0.16009793 -1.4199938 -2.217677 -1.9377061 -1.1510583 -2.2084363
-0.33444646 -1.3989388 -0.71337247 -1.9842014 -2.6900613 -1.9730738 -0.8254306 -2.0943744
-2.0917335 -1.5122403 -1.686897 0.08863728 0.17656602 -1.6662565 -1.7332081 -0.85642886
-1.8132087 -2.2013092 -1.6124612 -2.2318735 -1.5018826 -1.2758353 -2.264652 -2.4978466
-1.96739 -0.4764386 -0.20727581 -1.6657009 -0.31053331 -1.428017 -1.3802308 -1.1244322
-1.8328683 -0.767126 -0.5566036 -0.275966 -1.9807007 -0.80911434 -1.6443249 -0.32033962
-0.18954077 -2.4069672 -2.398749 -2.138371 0.5584411 -1.2688738 -1.0527446 -1.7959708
-0.76776457 -1.832417 -2.167518 -1.0002344 -0.42421445 -0.69518197 -1.8411797 -1.6872985
-1.7227905 -0.8716797 -0.42437616 -0.7735328 -2.2054515 -0.70904374 -2.1713963 -0.1935541
-2.1596258 -1.9937109 -1.6698663 -2.135116 -0.35024458 -1.684119 -1.138334 -0.25690514
-1.8894423 -1.9186813 -1.5681823 -1.6520823 -0.8158802 -2.2357502 -1.6811621 0.28230032
-1.6729808 -0.27568057 -0.18127652 -2.090844 0.5302057 -0.7835713 -0.70497113 -1.0242124
-0.4728367 -0.7409719 -0.7863853 1.4934994 -0.5785431 0.161125 0.42342985 -1.4147738
-0.83551586 -1.07294 -0.7231338 -1.1686162 0.18287736 -0.96159834 -0.52115643 -0.99836296
-1.3083096 -0.7470893 -1.3550316 -1.2131945 -0.890095 -0.36615205 -0.7622475 0.4154949
0.1202173 -0.7576764 -0.72572327 -1.7860196 -1.118194 -1.2590104 -0.75056565 -0.9421494
-0.7337566 -0.80850494 -1.0184149 -0.9491454 -0.9374943 0.048012774 0.30506274 -0.6773462
-0.036003392 -1.1142514 -0.84758115 -0.68618554 -1.3854953 -0.83872443 -0.27177978 -0.109459616
-0.9561944 -0.26073205 -0.9606178 0.30871046 0.39218628 -0.8659821 -0.6017764 -1.2234681
0.618329 -0.782219 -0.13554874 -0.9300578 -1.4366372 -0.40734813 -0.85601556 -1.7357285
-0.39827493 0.05505364 -0.46565196 -0.5710335 -0.75907856 -0.012471104 -0.8518887 -0.12731743
-1.0588839 -0.5276357 -0.32577887 0.13321257 -0.43943465 -0.78219527 -0.7535639 -0.98235387
-0.24543256 -0.7705196 -0.91080856 -0.07330795 -0.49326053 -0.80365527 -0.52972305 -0.82836074
-0.407507 -0.7934091 -1.0031742 0.8779573 -0.8642195 0.40699476 0.2183065 -1.2820358
-0.14662015 -0.07387508 -0.16704187 0.018036058 -0.14180106 0.007609327 -0.084579006 -0.52969193
-0.13705309 1.1085382 0.22982267 -0.06810076 -0.08650209 0.09326983 0.099568844 0.04415031
-0.077472776 -0.06896923 -0.10366856 -0.3032667 -0.020446273 0.08211849 0.27741888 -0.17518178
0.105151966 -0.030543774 0.01933122 -0.45387536 -0.038302418 -0.035743587 0.14568448 -0.35653257
-0.050639324 0.24126753 -0.0115423715 -0.116392806 0.09846721 -0.41926375 0.23574989 0.012900476
-0.0026740306 -0.2913258 0.2889527 -0.12644087 -0.18761328 -0.045870177 0.20097908 0.392387
-0.045837834 0.034991294 -0.103867106 -0.025309348 0.4419538 -0.22264065 -0.22649963 -0.21724442

module.enc_lstm.bias_hh_l0 f4 [400]
00000000: a9bc 5ebd d597 f4bf 4f0e 0ec0 7299 fbbf
00000010: ca6d 00c0 686a 8dbf c441 01c0 77a3 473f
00000020: 682f 0bc0 6901 93bd cc02 0cbc 4292 acbf
00000030: 525d 0bc0 ef69 e2bf 8fd3 97bf 1bc8 05c0
00000040: c9c5 7ebe 1ac3 b2bf 069b 1dbf 4793 02c0
00000050: 6e0e 27c0 a96e fdbf d5b3 55bf 4446 ffbf
00000060: 101b 00c0 dec5 d1bf 0081 c3bf b744 ac3d
00000070: fa83 9d3d d5cd d3bf 8daf d7bf afbe 37bf
00000080: 2434 ddbf ca88 10c0 31f6 dbbf 7b86 09c0
00000090: ab2f ccbf 4d97 acbf a555 15c0 5d31 1ac0
000000a0: c309 fabf 81a1 03bf a665 1fbe a465 d1bf
000000b0: 14e1 c5be b938 b9bf d079 b2bf 8bd5 9ebf
000000c0: 8ea7 ebbf 374e 30bf 1db2 c4be fbe5 babe
000000d0: 506d 01c0 f8e2 6abf 2090 c3bf 38f2 95be
000000e0: 168b e1bd 3c29 13c0 f3f5 1fc0 1c88 10c0
000000f0: 14dc c63e 75a7 aabf c183 83bf fe83 f2bf
00000100: 5e42 64bf fab0 eabf d67e 04c0 ad88 8dbf
00000110: 78c6 a9be bb5d 35bf 1b7d f5bf 98af dcbf
00000120: c209 dfbf 3bfa 6dbf a079 e3be 4bb3 26bf
00000130: 072f 10c0 72de 4cbf 84d9 02c0 4fcc 5fbe
00000140: 68e5 00c0 41d9 09c0 85e2 debf 051e 08c0
00000150: ad28 d5be a724 dcbf 23fb 90bf 32d7 bcbe
00000160: c0d4 e5bf da1e eabf 1890 d2bf f3a8 c1bf
00000170: 7966 2fbf 566c 0bc0 6e94 e1bf 0f59 1a3e
00000180: 92a4 debf b5ec c9be 695e f9bd 1bbf 05c0
00000190: 8ac8 073f eb41 4ebf 983b 39bf 763e 65bf
000001a0: f2b2 0dbf 96e7 33bf 66a2 52bf 68aa c43f
000001b0: 1900 05bf 4322 c23d 77fd 013f 6ab5 b3bf
000001c0: b993 51bf 9d7e 95bf 121d 29bf a31e 8cbf
000001d0: 45d0 093e 9378 5dbf 1ee2 d4be 5ff1 85bf
000001e0: 1a91 96bf a306 2abf cb8a a7bf cf98 90bf
000001f0: f8cf 81bf 6641 c9be a7d7 55bf c33f cf3e
00000200: 1fcf 0c3e 0588 48bf 3394 4cbf c828 ebbf
00000210: 0dd6 8dbf 4616 9abf da7e 41bf 825d 4abf
00000220: db13 5cbf 8ee5 42bf 7ba8 73bf 80fc 7dbf
00000230: 5da4 6bbf f780 a73d dadc 8e3e b3dc 24bf
00000240: 6009 693d 0285 93bf 366b 63bf 6aa3 43bf
00000250: 5966 a2bf 098f 5fbf 940c 6dbe 4f1c 55bd
00000260: 41cd 86bf 3979 a2be c9d6 78bf aa71 7a3e
00000270: cc83 b23e a098 54bf 93df 36bf f44b a9bf
00000280: 483e 143f feb1 49bf 6385 a1bd e9a3 40bf
00000290: ce89 b8bf 51f0 dabe bfb9 55bf 5554 e5bf
000002a0: 4eed 9cbe be01 fa3c 653e 03bf b365 10bf
000002b0: b361 55bf 08fb f8bc fd6c 63bf e38c 32be
000002c0: efdc 9abf ddf5 bebe 9668 d3be 42b8 083e
000002d0: 92a2 9ebe 04b9 63bf fdb6 27bf 4410 8cbf
000002e0: de67 53be 2942 63bf 1e91 5abf 6a51 f63c
000002f0: c72f 08bf 4a11 38bf b5b7 0bbf 64d3 38bf
00000300: 989e ccbe 7b08 33bf 1e1c 6abf f688 5a3f
00000310: e611 68bf e67c 893e 387f a63e ab7c 9bbf
00000320: b4bb 2bbc a720 913d fe8a c9bd f568 993d
00000330: 8c11 61be 6358 0e3d 797e 91bd a1a6 05bf
00000340: 9975 2dbe 36ee 8a3f 0b40 c63d b0ee 0fbe
00000350: 286d 08be 8964 a0bc 67cc 39bd de7a 903d
00000360: 2d98 ddbd 0de5 efbc 1914 21be 921c 96be
00000370: 42f6 3e3d 92ae 2bbd 5a39 d33e dc5c 72be
00000380: d2ce 353e f70d 203c 8db7 c9bb 925e 09bf
00000390: 4ec5 e1bd 9a3e 883d 4dc6 c03d 7892 eebe
000003a0: 4b69 263d 8c20 253e 838f ddbc b93d 81bd
000003b0: 7a8e b63c 0251 1cbf ebae 8d3e 3cee a7bd
000003c0: e08b ba3c cb1c 62be ce27 b23e 0083 d0bd
000003d0: bc68 8cbd b223 c5bd e86a 013e 9204 a23e
000003e0: b4f1 84bd edbc 10bd 4bb0 0cbe 81de 223d
000003f0: 3483 e33e decd f4bd 13bf 50be 28ca 1fbe
-0.05437914 -1.9108835 -2.2196233 -1.9656203 -2.006701 -1.1048098 -2.019639 0.779838
-2.1747684 -0.07178003 -0.008545589 -1.3482134 -2.1775708 -1.7688578 -1.1861438 -2.0903385
-0.24880137 -1.396579 -0.6156467 -2.040239 -2.6102557 -1.9799396 -0.83477527 -1.9943318
-2.0016518 -1.6388509 -1.5273743 0.08411544 0.07691188 -1.654719 -1.6850449 -0.71775335
-1.7281537 -2.258349 -1.7184507 -2.148833 -1.5952047 -1.3483673 -2.3333523 -2.409263
-1.9534229 -0.5141831 -0.1556612 -1.6359143 -0.38648283 -1.4470435 -1.3943424 -1.2408918
-1.8410509 -0.68869346 -0.3841714 -0.36503586 -2.022297 -0.91752577 -1.5278358 -0.2928636
-0.11012857 -2.2993917 -2.4993865 -2.2583075 0.3883978 -1.3332354 -1.0274583 -1.8946531
-0.8916377 -1.8335259 -2.0702415 -1.1057335 -0.33159232 -0.70846146 -1.9178804 -1.7241087
-1.7424853 -0.92959946 -0.4442873 -0.6511733 -2.2528703 -0.80026925 -2.044526 -0.21855281
-2.0140018 -2.1538851 -1.7412878 -2.1268322 -0.41632596 -1.7198685 -1.1326641 -0.3688293
-1.7955551 -1.8290665 -1.6450224 -1.5129684 -0.68515736 -2.1784873 -1.7623422 0.15073036
-1.7393973 -0.39438406 -0.121762104 -2.0897892 0.53040373 -0.8056933 -0.7235656 -0.8954843
-0.55351174 -0.7027525 -0.8227905 1.5364504 -0.51953274 0.09479191 0.5077738 -1.4039738
-0.8186603 -1.1679264 -0.6605998 -1.094685 0.13458355 -0.86512107 -0.41578764 -1.0464286
-1.1763031 -0.66416377 -1.3089231 -1.1296633 -1.0141592 -0.39307708 -0.83532184 0.40478334
0.13750885 -0.7833255 -0.79913634 -1.837182 -1.1080948 -1.2038047 -0.75584185 -0.7904893
-0.859678 -0.7613152 -0.95178956 -0.9921341 -0.92047673 0.08178895 0.2790287 -0.6439926
0.056893706 -1.1524966 -0.88835466 -0.76421225 -1.2687484 -0.8732763 -0.2314933 -0.05202895
-1.0531389 -0.3173311 -0.97202736 0.24457422 0.34866178 -0.8304539 -0.714349 -1.3226304
0.57907534 -0.7878722 -0.078867696 -0.7525011 -1.4417055 -0.42761472 -0.8348655 -1.7916361
-0.306498 0.030518409 -0.5126708 -0.5640518 -0.833522 -0.030393139 -0.8883818 -0.17436557
-1.2098674 -0.37296954 -0.4129073 0.13351539 -0.30983406 -0.88954186 -0.6551359 -1.0942464
-0.20645091 -0.8877283 -0.8537768 0.030068118 -0.531979 -0.7190138 -0.5457719 -0.72197556
-0.39964747 -0.69934815 -0.91449153 0.85365236 -0.9065231 0.26853102 0.32518935 -1.2147421
-0.010481764 0.07086306 -0.09840964 0.07490722 -0.2197935 0.03475226 -0.07104201 -0.5220738
-0.16939391 1.0853946 0.09680184 -0.14055896 -0.1332289 -0.019579189 -0.04536095 0.07054685
-0.10820041 -0.029284025 -0.15730323 -0.29318672 0.04662157 -0.04191453 0.41254693 -0.23668236
0.17754677 0.0097689545 -0.006155914 -0.5365993 -0.11023961 0.06652565 0.09412823 -0.46596122
0.04062776 0.16125697 -0.02704597 -0.06310601 0.022284735 -0.6106111 0.27672514 -0.081997365
0.022771776 -0.22081296 0.34795994 -0.10181236 -0.06855914 -0.09625949 0.12638438 0.31644112
-0.06491414 -0.035336424 -0.13739125 0.039762978 0.44436038 -0.119533285 -0.20385389 -0.1560446

module.enc_lstm.weight_ih_l0_reverse f4 [400, 18]
00000000: 7c4a 803d aaa1 d6bd cddc 95be 64fa 25bc
00000010: 57b0 89bf 525b 41be 0da0 a0be 5c08 dcbf
00000020: fff8 f1be f00b d33d 7e9f f13d fc8f 51be
00000030: c4eb 05bf 2283 03bf d0bd 52bd 2dc6 fd3e
00000040: c865 f83f db68 073f bcbc debd 8f4b ffbe
00000050: b9e0 5f3f 35bf 8bbf a88b 1a3f 3793 a9bf
00000060: dcba 163f cb3d 06be 493c 25be adc9 d1bc
00000070: f1fa cebe 9937 6e3f ddec 2abd d529 8d3f
00000080: f0be db3e 7c8a eabe 109e c13c a1af 183f
00000090: d813 753d bc0f 46be 1a83 97be b7b7 4ebf
000000a0: aa23 c0bf b71c 683d a168 89be d218 f1bf
000000b0: 14ca eabe 65b7 f63d ff42 38bc 96a1 aebd
000000c0: fda4 9ebe 5b8c a4bf 3237 2b3e ea92 ca3d
000000d0: 288b f33f 4385 043f b52b f23d d8cc edbd
000000e0: 32e2 d6be 925b 35be 1269 f0bf 249f 0cbd
000000f0: 26ab d4be 2f54 eebf b39c d5be 66b5 bd3d
00000100: 464e ad3d f08a 4cbe 762a 0fbe 7bfc b2bf
00000110: 0f41 643e 6dcf d13e bf26 f23f f797 003f
00000120: d9c7 a93e 1470 92bd 8bc9 c5be e886 58bd
00000130: 08c5 87bf 827a 483e 2b70 69be 90fe ddbf
00000140: 177f 0ebf c0a4 943e b9e1 6dbc 8a9f fcbe
00000150: f512 afbc 05fc 2bbf 828f d5bd 1b7a db3e
00000160: df49 ef3f 6edb 3c3f 21b0 8b3e 88ac 61be
00000170: 421d bdbe d28b ebbe 9877 b4bf fc2e 043f
00000180: 6ba4 5dbe 30fd f3bf ceee fabe 717a 3f3e
00000190: d3a8 3ebe 178f 2ebe d99a 00bf af0f 9fbf
000001a0: 677c 0a3e 3e8b 233e 1cdb 0040 2204 133f
000001b0: ca03 ae3e 46b3 c1be 0395 54bf d709 dcbe
000001c0: 3531 b8bf 43bf 3b3f 07c7 b7be 46f2 bfbf
000001d0: aa13 a9be a21a ce3e ffac 97be dd0e 1abf
000001e0: 1290 14be 4a9c 6bbf adef 123e 3121 c33e
000001f0: 9417 b23f eda1 953e 74b2 5d3e 70cc 86bc
00000200: 7dc3 b7be 1d37 edbe a52a 25c0 ec8a b1bf
00000210: b37d 2cbf 4b2c f5bf 205b bcbe 1571 213e
00000220: bf8e 823e 3bfc 9ebe 5850 90be a9ec f1bf
00000230: 5eaf 213f 00b0 2b3f f205 eb3f 240b cb3e
00000240: 9ae7 b33e 2671 133e 8e67 14bf 9bb7 1ebe
00000250: cc7e f8bf ae0e babf 8255 61be 6beb 01c0
00000260: 238b c7be b28f cb3e 7b18 973e 1811 e4be
00000270: 27ce 8abe 478c 43bf b84a 253e e3fb 6f3e
00000280: 3bf9 ff3f d146 ba3e 763b af3d 4acb c3bd
00000290: 7523 babe b8be 773e c58e f8bf 3ceb f0bd
000002a0: e9e8 85be 7345 dcbf 341e 99be 9732 d73d
000002b0: 0188 16bd 8b1c 2bbe a5ef 233c a232 8cbf
000002c0: 11fd f53e 14df 963e 43b8 e43f 9469 aa3e
000002d0: 2266 a23e 475c 32be bcc3 55be 1c68 c73d
000002e0: c4f5 d2bf ef76 a6be 5fc4 9dbe c198 e6bf
000002f0: bab6 8dbe baa0 843e c45c 45be 0ee0 b3be
00000300: 19ed 62be 3290 a6bf 70c2 953e 0e0f d23e
00000310: d1d7 e03f 126e c33e 4f2b 0e3e 1aa1 87be
00000320: 0ee8 84be 0936 87be 9a1c d8bf 3c44 d8be
00000330: 9d8f bebe 5c26 03c0 a3da 7abe 2664 8a3e
00000340: 9852 32be 0756 48be 4c17 f73d df74 adbf
00000350: 4051 0e3f f9d7 c63e acd2 f03f 6581 ab3e
00000360: 7036 ae3e 1402 93bd 57ce babe 9337 42bf
00000370: 18f8 e8bf 85d4 053d 36b3 81be e17a febf
00000380: ec34 17bf 6879 553e 9664 c93d 35cd aabe
00000390: 3eb3 93be 80fa 9fbf 783d aebd f70b af3e
000003a0: e476 df3f 0b92 253f 98b7 583e e1a8 9fbd
000003b0: 3dc1 b2be 00c7 c7be 19fe bcbf 9291 c33e
000003c0: 3be7 87be 9071 f1bf 70ab ebbe 629f 8c3e
000003d0: 86ff 51bd 8fc7 9bbe b5fd 4dbf 0151 99bf
000003e0: 9ea1 463f 129e 493e 0ee0 e73f d330 233f
000003f0: 588c 6b3e e907 4ebe 6354 e9be 74a9 5cbe
0.06264207 -0.10480054 -0.2927002 -0.010130499 -1.075694 -0.18882492 -0.3137211 -1.7190051
-0.4726028 0.10305011 0.11797999 -0.20465082 -0.52312875 -0.5137197 -0.05145055 0.4956526
1.9406061 0.5289437 -0.10875842 -0.49862334 0.87452275 -1.0917727 0.6036935 -1.3248051
0.58878875 -0.1310951 -0.16136278 -0.025608862 -0.40425828 0.93053585 -0.041729797 1.1028391
0.4291911 -0.4580878 0.02363494 0.5964299 0.059833378 -0.1934194 -0.2959221 -0.80749077
-1.5010884 0.05666801 -0.26837638 -1.88357 -0.45857298 0.120466985 -0.011246442 -0.08526914
-0.3098525 -1.2855333 0.16720274 0.09891303 1.9026842 0.5176584 0.11824743 -0.116113365
-0.41969448 -0.17710713 -1.8782065 -0.034331456 -0.41536826 -1.8619441 -0.41721115 0.09263115
0.08462195 -0.19974875 -0.13981041 -1.3983301 0.22290443 0.40978566 1.8918074 0.5023188
0.33160284 -0.071502835 -0.38630328 -0.05286303 -1.0607004 0.19577983 -0.22796695 -1.7343311
-0.55662674 0.29031944 -0.0145191485 -0.4934047 -0.021371344 -0.67181426 -0.104277626 0.42866597
1.8694419 0.73772323 0.27282813 -0.22038472 -0.36936384 -0.46005112 -1.4098997 0.5163419
-0.21644752 -1.9061642 -0.4901032 0.18699051 -0.18619089 -0.17046772 -0.5023628 -1.2426661
0.13524018 0.15971085 2.0133734 0.5742818 0.33987266 -0.37832087 -0.83039874 -0.42976257
-1.4390017 0.7333872 -0.35894033 -1.4995811 -0.33022815 0.40254694 -0.29624173 -0.6017893
-0.14508083 -0.92035353 0.14349242 0.3811126 1.3913445 0.29225102 0.21650106 -0.016454905
-0.35891333 -0.4633111 -2.5807278 -1.387052 -0.673793 -1.9154142 -0.36788273 0.15765794
0.25499532 -0.31051812 -0.28186297 -1.8900348 0.63158214 0.6706543 1.8361189 0.39656937
0.35137635 0.14398631 -0.5797051 -0.15499727 -1.9413695 -1.453573 -0.22005275 -2.0299938
-0.3897334 0.39758068 0.29510865 -0.44544291 -0.27110407 -0.7638592 0.16141784 0.23435931
1.9997934 0.36382154 0.08556263 -0.09560259 -0.36355177 0.24193847 -1.941857 -0.117636174
-0.2615426 -1.7208694 -0.29905856 0.10507696 -0.036750797 -0.16710107 0.010005866 -1.0952952
0.48044637 0.2946707 1.7868732 0.33283675 0.31718546 -0.17418014 -0.20875448 0.09736654
-1.6481252 -0.32512614 -0.30813882 -1.8015367 -0.27678472 0.25903875 -0.19273669 -0.35131878
-0.22160758 -1.3012755 0.29249907 0.4102711 1.7565862 0.38169914 0.13883708 -0.26490098
-0.25958294 -0.26408413 -1.6883729 -0.4223956 -0.37218943 -2.0492163 -0.24497466 0.27029532
-0.1741432 -0.19564067 0.120649904 -1.3551291 0.5559273 0.3883665 1.8814292 0.33497158
0.34025908 -0.07178131 -0.3648555 -0.7586605 -1.8200712 0.032673378 -0.2533204 -1.988125
-0.5906513 0.20847094 0.09833638 -0.33359686 -0.28847688 -1.2498322 -0.08507818 0.34188816
1.7458158 0.6467597 0.21163785 -0.07795883 -0.34913054 -0.39019012 -1.4765044 0.38197
-0.26543602 -1.8862782 -0.46029234 0.2746535 -0.051269077 -0.3042569 -0.8046525 -1.1977845
0.7759036 0.19689205 1.8115251 0.63746375 0.23002756 -0.20120205 -0.45572194 -0.21549016

module.enc_lstm.weight_hh_l0_reverse f4 [400, 100]
00000000: ba54 f93c 7046 5d3d f028 8f3d 9a34 7c3b
00000010: 700c 36bd ba54 e33c 8dfb a93c 3351 cdbb
00000020: 536b 74bd cd8f 86bc ba95 a23c 1aa3 5dbd
00000030: 0d66 4fbc c7d5 1a3d 7381 9c3d f3a3 3b3d
00000040: 5a70 70bd e704 64bc 4219 943d bf26 81bd
00000050: f08e 8ebd a0e2 63bd 4d20 62bc 02cc ba3d
00000060: c823 a9bd 0775 8d3c 8007 163d b060 ca3d
00000070: 30f6 c8bd 47e1 7cbd 2789 be3c c3af 763d
00000080: c7db 72bd 6089 f53c 8d7e adbc 9814 92bd
00000090: 9fac ca3d 0db8 1ebd c01a 0c3c d5ba 843d
000000a0: 780a af3d 6d91 28bd 771c 1c3d e0f4 1b3d
000000b0: 7ad8 b63d 7d2b 313d b721 14bd 275c b1bc
000000c0: 9021 833d da07 89bc 400f a93d 8044 153d
000000d0: 93a3 f3bc 0077 bdbc 13b7 233d 5f59 983d
000000e0: dab5 d8bc 68a6 8fbd da44 cebc 6296 a1bd
000000f0: 33bb 63bd 95ca a1bd 80b6 133d a785 1d3d
00000100: 3abf fc3c 73bb 633c 271e 8cbd d70c 1bbd
00000110: 9a01 1f3c b32f db3c c714 62bd d0c7 0fbd
00000120: 3725 c03d 0abc 5abd cd23 73bb 2378 3f3d
00000130: 9b5e bdbd d3e5 673d e5bb cbbd 67e6 eebc
00000140: 75b3 80bd e039 bbbc b3ba 5abd efac 9ebd
00000150: 4a2e 7a3d 7d5c 8dbd 07bd c6bc 8d66 07bc
00000160: c040 e4bc b78b 213d 9a69 5f3a 35ea 99bd
00000170: 330a 66bd cdd8 453b 7376 6b3d 07b9 8dbd
00000180: a83f c3bd e7e9 0abc e27b c4bd 67fc 35bc
00000190: a73f 643c 8334 8a3d dad5 ba3d 607b b63c
000001a0: 6dbb cf3c 0df7 45bd 5b98 a43d 37a0 b7bd
000001b0: 7aae 463d 9026 b63d 2050 50bd fb23 823d
000001c0: f7ef 403d 4db1 3bbc 8db3 933d 672e 0fba
000001d0: 0082 9c3a 603e ffbc 6fd4 a93d 8055 b5bc
000001e0: 9a47 92ba 9f14 c53d faf1 b23c c09f 783d
000001f0: 95b5 c3bd 80e0 46bc f799 183d 401c 153d
00000200: 9a11 66bb fdd2 a93d 5061 30bd faee 323d
00000210: 8a96 adbd cd73 eabb a72e c8bc 6022 b5bd
00000220: 0d0b 8a3d 47d2 34bd 572d a13d 9d02 213d
00000230: 5a69 e73c b070 7a3d b791 c83d 9af8 dfbc
00000240: 7ba5 85bd ab89 b63d 8de8 49bd 6d04 85bc
00000250: 530d 83bc 3ae7 083d aded adbd 0aa7 603d
00000260: 9dd7 4f3d d3f7 bebd ea74 703d e376 8ebd
00000270: 6bc4 80bd c019 953d d30b 413d a336 063d
00000280: d339 9abc a347 813d fa67 3fbd 458f 89bd
00000290: 937a 09bd 4d69 a13b ca07 a6bd 9ac9 313c
000002a0: f7bf af3d ff32 973d 837c 043d 6a95 b7bd
000002b0: 3374 b63c 0034 e13c 8030 a5bb 2005 babc
000002c0: 229a 9b3d 205c 9dbd 77d7 7e3d a046 86bd
000002d0: 5dc8 69bd 3319 6d3c 7a82 863c 136d 913c
000002e0: 0710 9fbc 2082 64bd 00bf 243c 389e c13d
000002f0: 97df 8e3d b36b f43b 67e1 7f3c 67b4 42bc
00000300: cd44 48bc 6390 28bd b33b 8bbb fa46 8a3c
00000310: 1a9e 033c 50ba 00bd 90f2 4cbd e3ce 19bd
00000320: b011 1c3d a0cd 1d3d 4d15 d93b 0812 bb3d
00000330: 93ff 863d b2b1 823d 53b5 b7bd 426c a6bd
00000340: 1b26 a9bd f268 b03d 938a 9c3d 3300 59bc
00000350: 67fc 1b3b 7d40 70bd d396 4b3d b395 6bbd
00000360: 87db 95bd 8d8f 923c 0765 d83c 8d07 2f3d
00000370: 8a24 473d 40fd c93c 701e aa3d b3ab c5bd
00000380: dad3 283c 80e6 c9bc aace a4bd 7007 1abd
00000390: 4331 263d 7d25 6b3d caec 64bd 13e2 6fbd
000003a0: a0a3 1dbd 8008 8abb 5a22 c4bc 25fd 9ebd
000003b0: e359 c6bd aa6f c33d 5f5d 833d 30c2 3fbd
000003c0: ebde a2bd 8094 49bd 7844 c13d e058 0abd
000003d0: 67ae 43bc 2a7d 883d 2768 92bd 28b9 893d
000003e0: edb2 70bd 1bb6 933d 275e 1abc 43ad b5bd
000003f0: d779 50bd bb5c 853d 67d4 30bb 3583 bebd
0.030435909 0.054022253 0.0699023 0.0038483501 -0.044445455 0.027750362 0.020749832 -0.006265783
-0.059672665 -0.016425991 0.019846786 -0.054110624 -0.012658608 0.03780153 0.07641878 0.04581065
-0.058700897 -0.013917184 0.0723138 -0.06306218 -0.06960857 -0.05563605 -0.013801646 0.09120943
-0.08258778 0.017267717 0.036628246 0.09881723 -0.098125815 -0.06173828 0.023258759 0.060226213
-0.059291627 0.029972732 -0.021178508 -0.07132834 0.09896206 -0.038749743 0.0085513 0.06480948
0.08546919 -0.041154314 0.038113084 0.038075328 0.089280084 0.043254364 -0.036164965 -0.021650387
0.06402886 -0.016727377 0.08254862 0.03644228 -0.029741084 -0.023128033 0.039969515 0.07438921
-0.026453901 -0.07014161 -0.025179315 -0.07890011 -0.05559845 -0.078999676 0.036062717 0.03845754
0.030852903 0.013899672 -0.068416886 -0.037854042 0.009704972 0.026756143 -0.055195596 -0.035102665
0.09382098 -0.053401984 -0.0037100196 0.04674543 -0.0924656 0.05661566 -0.099479474 -0.029162599
-0.06284229 -0.022854745 -0.053400706 -0.07747828 0.0610793 -0.06902406 -0.024260057 -0.008264196
-0.027862906 0.039439883 0.0008522511 -0.075153746 -0.05616207 0.0030189038 0.05748601 -0.06920057
-0.09533626 -0.008478618 -0.09593941 -0.011107541 0.0139311915 0.06748297 0.0912282 0.022275627
0.025357926 -0.04833131 0.08036872 -0.089661054 0.048506238 0.08894074 -0.050857663 0.06354519
0.04710385 -0.011455846 0.07211981 -0.00054619316 0.0011940598 -0.031157672 0.082924716 -0.022135496
-0.0011160255 0.09623074 0.021843899 0.060699224 -0.095561184 -0.012138486 0.037256207 0.036403894
-0.0035105706 0.08292196 -0.043061554 0.043684937 -0.08475979 -0.007154918 -0.024436308 -0.08844447
0.06740389 -0.04414585 0.07869976 0.039309133 0.028248478 0.061142623 0.09793418 -0.027340222
-0.065257035 0.08912977 -0.049294043 -0.016237462 -0.015997564 0.03342364 -0.08492599 0.0548468
0.050742734 -0.093246125 0.058705248 -0.069562696 -0.06287464 0.07280302 0.047130417 0.03276695
-0.0188264 0.06312492 -0.04673002 -0.067167796 -0.03356416 0.004925883 -0.081069544 0.010851288
0.08581536 0.073827736 0.032345306 -0.08964045 0.022272205 0.027490616 -0.005041182 -0.022707522
0.07597758 -0.07683587 0.062217202 -0.065564394 -0.057075847 0.01447134 0.016419638 0.017752206
-0.019416822 -0.05578816 0.010055304 0.09454006 0.0697624 0.007459128 0.015617705 -0.011883832
-0.012223435 -0.041153323 -0.00424906 0.016879547 0.0080333 -0.03142768 -0.050036013 -0.03755082
0.038102806 0.038526177 0.0066248537 0.091342986 0.06591716 0.06381549 -0.08970132 -0.08126117
-0.08259221 0.08613767 0.076436184 -0.013244676 0.0023801567 -0.05865525 0.049704384 -0.05751581
-0.07317262 0.017890716 0.026415361 0.04273181 0.04861883 0.024656892 0.08306587 -0.0965189
0.010304416 -0.024646044 -0.080472305 -0.03760475 0.040574323 0.0574088 -0.055889882 -0.05856521
-0.038486123 -0.004212439 -0.023942161 -0.07763127 -0.09685113 0.095427826 0.064142935 -0.04681605
-0.079526745 -0.049213886 0.094368875 -0.033776164 -0.011943436 0.06664498 -0.07148772 0.06724769
-0.058764387 0.07212468 -0.009421862 -0.08870938 -0.050897446 0.065118276 -0.002698207 -0.093023695

module.enc_lstm.bias_ih_l0_reverse f4 [400]
00000000: 2e8d 0ac0 3781 0bbe be2f 0dc0 9e6f 0bc0
00000010: 176e 02c0 eee0 01c0 0f19 c9bf 7e44 03c0
00000020: 2ba6 0fc0 f6a0 15c0 c1ab 06c0 896b 0ac0
00000030: 2007 14c0 31f7 08c0 9c3f 07c0 adc0 0bc0
00000040: 56bf fcbf e01c 09c0 8cbc 02c0 4f9a 0dc0
00000050: b946 0bc0 db65 0bc0 88e0 06c0 6e8d 00c0
00000060: 2e4b 07c0 c57d 01c0 55ac 7fbf b2b5 0fc0
00000070: 3ef2 08c0 fa5c 0cc0 f8d4 02c0 7c48 10c0
00000080: d679 0ac0 e9ab 07c0 7356 07c0 3b57 09c0
00000090: 9f7e 06c0 8c65 11c0 6aa3 0ac0 bf46 09c0
000000a0: 1400 0bc0 5026 07c0 8cfe 0cc0 cd8e 00c0
000000b0: b6ac 03c0 811c 06c0 3e3e 79bf f158 0bc0
000000c0: 6a4f f4bf d596 0ac0 49fa 05c0 ddeb cabf
000000d0: 3cf1 f9bf 06a7 14c0 510f f9bf 963a 0cc0
000000e0: 5b7c 00c0 711e 10c0 a57f 13c0 abcb 00c0
000000f0: 9e87 07c0 b6e5 0dc0 6d03 05c0 9c07 52bf
00000100: af34 0ac0 5123 0fc0 a316 04c0 25cf 07c0
00000110: a3e6 04c0 74e2 9cbf 6d0f 07c0 4aba fdbf
00000120: 7bb2 05c0 aeba 02c0 c9f0 0cc0 562f 04c0
00000130: af2f 01c0 ccff 06c0 8267 07c0 a569 01c0
00000140: 7b39 d1bf 13f6 f6bf 7d9d 14c0 3478 09c0
00000150: 0bb3 52bf 6bad 05c0 50ff b3bf 7f4d 07c0
00000160: bd4f 0bc0 6c5f 02c0 a58f 0ec0 90f0 03c0
00000170: b3b2 07c0 3a1a 01c0 e810 08c0 f87e 0bc0
00000180: d782 0dc0 fe04 00c0 af71 fdbf 4bdd a2be
00000190: 6299 c7bd 679f c9bd 6704 763b 3322 3cbb
000001a0: ed48 f73c 7772 1bbd f31e a9bd 0dd3 723d
000001b0: 9ac1 d4b9 47bb 0abd 0f35 b73d 7063 ac3d
000001c0: ed2e 043d cd0f 843d e0ce 0cbd c3ce 8e3d
000001d0: 3afe 49bd 979f 0e3d 676c 953b 6feb cbbd
000001e0: 67b6 47b9 eb10 babd 5ac5 6abd 60fd be3d
000001f0: 27ba b8bd f791 36bd 426c 953d ed73 e83c
00000200: 5b4d b33d aba4 b83d 7390 9bbd 3f76 b73d
00000210: 6734 af3b 508f 443d 0bda 91bd 9f8a a73d
00000220: 60da 863d f377 9a3c 4762 90bc 1a68 093c
00000230: 7ad1 993c 1b8c c5bd a758 b6bc e35c a1bd
00000240: 1374 fbbc 9aec 973d c39c 7f3d b76f 63bd
00000250: fb47 c93d 5347 203d 503c 31bd c718 0b3d
00000260: 2025 cc3c cdea d9bc 3798 bd3d 4793 c0bc
00000270: 88c3 873d f370 7e3d 80d3 b5bc ff3c babd
00000280: 40d0 05bd 23ef 96bd 9339 843d c0b3 1cbc
00000290: a0d9 7abd b39f dabb 4701 bdbc 338a b23c
000002a0: dba1 bcbd cde8 e7ba 2df0 96bd 5594 a9bd
000002b0: cbd3 87bd 7727 a73d 67a0 9d3d 40af 4d3c
000002c0: 8087 d7bb d22d b23d 5375 92bd 4d74 95bb
000002d0: a041 1d3d d723 673d f8c3 a6bd 3357 95bb
000002e0: 6715 8dbd 1a13 28bd a71c 0d3c 33c7 90ba
000002f0: 0d4b 5cbd 6d42 8f3d 9d57 383d ed7d a8bc
00000300: ea69 6cbd 83c8 5abd 00e9 60bc cd50 5bbb
00000310: c032 59bd 97d4 503d 33f4 e2bc c8ad ad3d
00000320: 9bc8 00bc 4caf 413d 3042 fbbd d5e3 19be
00000330: 6424 d63e ef13 933c c8df 0bbf a3bc 2bbd
00000340: 930a c8bc dfe4 093d 775a 1a3d d115 b83d
00000350: f7a9 7abd 1347 1ebc 6284 853c cb42 5b3c
00000360: 3630 b33d 6b16 84bd b5b8 18bd ec58 9f3c
00000370: 9242 233e 7359 63bc 69dc 1dbb 0e5c 3abd
00000380: ee2e 073d 4aad 39bd 7921 1bbe 9191 a43d
00000390: 53b1 3bb8 1554 d6bd e4b9 67bd d4cd 26bd
000003a0: ef0d debd a419 083d 23e6 65bc ff89 8fbe
000003b0: adb9 9ebc f75f 94bc a9fe 4d3b 1053 4ebd
000003c0: cd16 f8bc 9b42 243c 84b3 59bd 86e0 03bd
000003d0: 8b0e 61bd f772 bbbd a178 febe 9ae1 e4bd
000003e0: fdef fa3e b455 67bd 3f21 32bd f8bb 39bf
000003f0: 26e0 17bd 0f36 32bd 8eba 363d 4d3c 07be
-2.164867 -0.1362351 -2.206039 -2.1786876 -2.0379694 -2.0293536 -1.5710772 -2.0510554
-2.244517 -2.3379493 -2.104233 -2.1628134 -2.3129349 -2.1400874 -2.1132574 -2.183635
-1.9745891 -2.1423874 -2.042758 -2.2125432 -2.1761916 -2.1780918 -2.1074543 -2.0086322
-2.1139636 -2.0233014 -0.9987233 -2.2454648 -2.1397853 -2.1931748 -2.0442486 -2.254424
-2.1636863 -2.1198676 -2.1146514 -2.1459491 -2.1014783 -2.271823 -2.166224 -2.144943
-2.1718798 -2.1117134 -2.2030363 -2.0087159 -2.0574164 -2.0954897 -0.973606 -2.1773036
-1.9086735 -2.165456 -2.0934012 -1.585323 -1.9526744 -2.3226943 -1.9457799 -2.1910758
-2.00759 -2.251858 -2.3046658 -2.012431 -2.1176524 -2.2171454 -2.078334 -0.8204286
-2.1594656 -2.2365305 -2.0638816 -2.122018 -2.076577 -1.2256608 -2.1103165 -1.9822476
-2.0890186 -2.042644 -2.2021964 -2.0653892 -2.0185354 -2.1093626 -2.1156926 -2.022073
-1.6345667 -1.9293846 -2.3221123 -2.1479616 -0.8230445 -2.0887096 -1.406229 -2.114105
-2.1767418 -2.037074 -2.2275174 -2.0615578 -2.120282 -2.0172257 -2.1260319 -2.1796246
-2.2111108 -2.0003047 -1.9800318 -0.31809458 -0.09746052 -0.09844857 0.0037539245 -0.0028706908
0.03018614 -0.03795096 -0.08257856 0.059283305 -0.00040580035 -0.033870008 0.08945667 0.08417404
0.032271314 0.06448326 -0.03437698 0.069730304 -0.049314715 0.034820165 0.0045600417 -0.09957015
-0.00019046069 -0.09085258 -0.057317115 0.09325671 -0.09019881 -0.044572797 0.07296039 0.02837559
0.08754989 0.09015783 -0.07595911 0.089581005 0.005346823 0.047988236 -0.071216665 0.08180737
0.065846205 0.018856024 -0.017624987 0.008386636 0.018776644 -0.096458636 -0.02225907 -0.07879045
-0.030694997 0.07418175 0.06240536 -0.05552646 0.09828182 0.03913052 -0.04327041 0.033959176
0.024920046 -0.02660122 0.09257548 -0.023507727 0.066290915 0.062119436 -0.022195578 -0.09093665
-0.032669306 -0.073698305 0.06456294 -0.00956434 -0.0612427 -0.0066718697 -0.023071898 0.021794414
-0.09210559 -0.0017693281 -0.07370029 -0.08280245 -0.06632193 0.08161824 0.0769661 0.01255399
-0.006577432 0.08700146 -0.07151284 -0.0045609833 0.038392663 0.056430664 -0.08142847 -0.004557514
-0.06888848 -0.04103384 0.008612788 -0.0011045694 -0.05378251 0.069950916 0.04500543 -0.020567859
-0.057718195 -0.05341388 -0.0137274265 -0.003346491 -0.053026915 0.05098399 -0.027704334 0.08480412
-0.007860328 0.047286317 -0.12268484 -0.15028317 0.4182464 0.017953841 -0.5463834 -0.041927945
-0.024419105 0.033665534 0.03768393 0.08988536 -0.061197247 -0.0096605 0.016298477 0.013382624
0.0874943 -0.064495884 -0.037285525 0.019451581 0.15943363 -0.013876307 -0.0024087674 -0.045497946
0.03300374 -0.045331277 -0.15149488 0.08035577 -4.474942e-05 -0.10465256 -0.056573763 -0.040723637
-0.10842501 0.033227578 -0.01403192 -0.2803497 -0.019375646 -0.018112166 0.0031432307 -0.050372183
-0.03028431 0.010025646 -0.053149715 -0.032196544 -0.05494551 -0.09152787 -0.49701408 -0.111758426
0.49011222 -0.056478217 -0.043488737 -0.7255244 -0.037079 -0.043508586 0.044611506 -0.13206597

module.enc_lstm.bias_hh_l0_reverse f4 [400]
00000000: 558f 11c0 625e 99bd 91fd 0dc0 543e 08c0
00000010: 430b 0cc0 ac69 03c0 e9b9 dabf df9f 08c0
00000020: 217a 0ac0 3efd 14c0 0a5c 0fc0 d2ca 07c0
00000030: f71f 0ec0 2fc1 07c0 2139 0bc0 668d 0cc0
00000040: 6099 07c0 4c23 0dc0 461d 05c0 5c9d 06c0
00000050: 5cbe 02c0 e4e2 01c0 dcef 10c0 7ccf 05c0
00000060: f818 06c0 7800 00c0 fc81 87bf 14d9 06c0
00000070: 3bb5 0ec0 0e58 12c0 73a5 03c0 ce7c 04c0
00000080: 73e8 09c0 2abf ffbf c31a 05c0 0fce 0cc0
00000090: 0e75 ffbf 6383 0ac0 7705 09c0 f524 0bc0
000000a0: 1b38 00c0 fa30 0cc0 e36b 0ac0 d0a0 03c0
000000b0: 6643 09c0 17bc 06c0 c84e 7ebf 9622 10c0
000000c0: f947 e8bf d280 04c0 6763 03c0 3e73 d4bf
000000d0: 19aa 05c0 405b 16c0 fbe2 05c0 6708 0cc0
000000e0: 8cf5 07c0 d987 0dc0 072c 07c0 3bac 04c0
000000f0: 4b03 ffbf c5c9 09c0 aedb 02c0 a2a8 34bf
00000100: 4974 0bc0 8c16 0dc0 aeef f8bf 4bca 0dc0
00000110: bf3f 03c0 2a92 9abf 5d85 01c0 51fb 08c0
00000120: 5c62 00c0 ee1d 05c0 7ab6 0bc0 7fad 04c0
00000130: c893 02c0 e404 0cc0 f21b 06c0 e23b 07c0
00000140: cfa8 e2bf 0fdd 02c0 3a3c 0fc0 680a 09c0
00000150: 0e5b 53bf 60a8 03c0 c0a6 b5bf de01 0ec0
00000160: 0eef 06c0 c540 ffbf b251 0fc0 a617 05c0
00000170: 4d7d 06c0 21df 05c0 b97e 0bc0 3a9f 05c0
00000180: 0bce 08c0 ed8a 06c0 270a 04c0 27e9 8ebe
00000190: 82b8 8f3d 0ac6 a2bd dde7 a6bd 6d25 83bc
000001a0: 002e 9bba a849 babd 93f6 d23c bab2 e93c
000001b0: 1798 6abd 534b 2cbd 22d4 9b3d 1a16 763c
000001c0: ddae 21bd 6af8 3fbd a5c4 a3bd ba68 aa3c
000001d0: 130c 463d 8d51 c9bc ca4e 293d 0ad9 cabd
000001e0: c0e1 74bc 534f 8ebd c3e0 65bd d08e 33bd
000001f0: b0bd a2bd c0f3 be3c bad5 dabc 1d94 bbbd
00000200: 3353 8a38 27b6 883d 330f 08bb 3a11 a33c
00000210: 0da4 1dbd 67ec c23d a765 2f3c 8df8 21bd
00000220: 40a0 abbc 0faf 81bd 7808 91bd 506a afbd
00000230: d3c0 abbc 5860 9c3d 9d0c 573d 208c 9ebc
00000240: 1a7c e63c 9a3b c63b 23d6 853d 6863 bfbd
00000250: 7343 66bc d7e5 8d3d a2e0 b73d 7f61 9cbd
00000260: 3a08 92bd d785 043d 872f 8bbc f342 7d3c
00000270: a006 b8bd 7ad5 f33c 706e 3dbd 325f cc3d
00000280: e0eb 373d cdba f63b c38c 223d c7cc 1fbd
00000290: b08f 64bd 8079 0c3d 9ac8 29bd 1a2a b73d
000002a0: f3d3 c03c 0373 b73d f704 5a3d 5b94 a2bd
000002b0: c2e8 bebd 9aa6 413c 33e7 a6ba 579a 263d
000002c0: 1ac0 65bc 43ef 59bd 1a76 913d d721 6e3d
000002d0: 93e0 b83c 32ec 81bd e701 203d 9a62 d73b
000002e0: f70a 7ebd 130b 583d 2d45 7a3d 8ac8 5abd
000002f0: c09f 59bd 5ffd 9ebd 3a3a 5f3d b0e4 c3bd
00000300: e724 60bc 0aca abbd 0023 073c eaf7 b7bd
00000310: 25a5 c93d 40ea 733c fa2e 1f3d 40b0 17bd
00000320: ea9a 843d ab9d 923c f660 3fbd 2926 23bd
00000330: 178d b73e 978b f2bd f614 13bf a92f 08bd
00000340: 6cd9 6bbc 85bc e53c eebe 163d 54a2 943c
00000350: f29a bd3c 724c 10bd 0788 193e bb3e 333d
00000360: ae5c 3ebd 9b02 c43b e8b4 283d e9e5 1cbc
00000370: 679c 193e 0be4 09bd e6fa a6bd 5a70 34bd
00000380: 1f05 04bc 7fbf 70bd 07e2 02be d7d6 b4bd
00000390: 2eab fcbc 4655 30bd 80b5 9dbc 1292 a4bd
000003a0: 2c9e c83c a536 203c f6d2 fa3a d1a4 53be
000003b0: 5108 003d 1f60 f43d 9fff 18bd 1c9f b7bd
000003c0: a179 56bd 5a05 15bd f796 49bb d00f db3d
000003d0: 64ce ad3d a945 a33c 4d46 9dbe 03d0 a83d
000003e0: 00af f63e e172 cd3d 0cbb a73c a08d 21bf
000003f0: 2ec3 b23c e20a c93d f416 c23c ee62 cfbd
-2.2743733 -0.07488705 -2.2186015 -2.1288042 -2.1881874 -2.0533247 -1.7087985 -2.1347578
-2.1637042 -2.3279567 -2.2399926 -2.1217542 -2.220701 -2.121166 -2.1753619 -2.1961303
-2.1187363 -2.2052794 -2.0799117 -2.1033545 -2.0428686 -2.0294733 -2.2646399 -2.0907888
-2.095274 -2.0000286 -1.0586543 -2.1069994 -2.2298114 -2.2866244 -2.0569732 -2.0701175
-2.1548126 -1.9980214 -2.0797584 -2.2000768 -1.9957597 -2.1642692 -2.1409585 -2.1741307
-2.0034244 -2.1904893 -2.162835 -2.0566902 -2.1447387 -2.10523 -0.9933896 -2.252111
-1.8146964 -2.0703626 -2.052942 -1.6597669 -2.088507 -2.3493195 -2.0919788 -2.1880128
-2.124362 -2.2114165 -2.1120622 -2.073012 -1.992288 -2.15294 -2.0446582 -0.70569813
-2.1789725 -2.2045012 -1.9448144 -2.215472 -2.0507658 -1.2075856 -2.0237648 -2.1403391
-2.0060034 -2.0799518 -2.1830125 -2.0730894 -2.0402699 -2.1877985 -2.0954556 -2.11303
-1.7707766 -2.0447423 -2.238051 -2.1412601 -0.82560813 -2.0571518 -1.4191513 -2.218864
-2.1083407 -1.9941641 -2.2393613 -2.0795684 -2.1013978 -2.0917437 -2.1796095 -2.0878434
-2.1375759 -2.1022294 -2.0631196 -0.27912256 0.07017614 -0.07947929 -0.08149693 -0.016009057
-0.0011839271 -0.0909608 0.025752341 0.028527606 -0.05727395 -0.042064022 0.076088205 0.015019918
-0.039473403 -0.046867765 -0.07996491 0.02080189 0.04835136 -0.02457502 0.041334905 -0.09904678
-0.014946401 -0.06948724 -0.056122553 -0.04383737 -0.07946336 0.023309588 -0.02671324 -0.0915911
6.59585e-05 0.06675368 -0.0020761013 0.019905675 -0.03848653 0.095177464 0.010705388 -0.039543677
-0.020950437 -0.06332218 -0.070816934 -0.085651994 -0.02096597 0.076355636 0.052502263 -0.019353926
0.028135348 0.0060495855 0.06534984 -0.09345132 -0.014054167 0.06928604 0.08978392 -0.076357834
-0.07130475 0.032354202 -0.016990436 0.0154578565 -0.089856386 0.02976488 -0.0462479 0.099790946
0.044902682 0.0075295926 0.039685022 -0.03901365 -0.055801094 0.03429556 -0.041451074 0.08943577
0.023538565 0.089574836 0.05322739 -0.07938453 -0.09321739 0.011819506 -0.0012733698 0.040674534
-0.014022851 -0.053206693 0.07102604 0.05813774 0.022568023 -0.06343879 0.039064314 0.0065730335
-0.062022176 0.052744936 0.061101127 -0.053413905 -0.053130865 -0.077631705 0.05449889 -0.09565103
-0.013680673 -0.08388145 0.008248091 -0.08982833 0.09845952 0.0148873925 0.03886316 -0.03703332
0.0647486 0.017897448 -0.04672333 -0.039831314 0.3584983 -0.11843031 -0.5745386 -0.033248577
-0.014395099 0.028043995 0.03680318 0.01814381 0.023145173 -0.035229154 0.14993297 0.043760996
-0.046475105 0.005981756 0.04118815 -0.009576299 0.15001069 -0.033664744 -0.08153324 -0.04405246
-0.008057862 -0.058776375 -0.12781535 -0.0883004 -0.030843344 -0.043050073 -0.019251585 -0.08035673
0.024489485 0.009778653 0.0019136358 -0.20668341 0.03125793 0.11932396 -0.037353154 -0.089658946
-0.052362088 -0.036382057 -0.0030760148 0.10696375 0.084866315 0.019930677 -0.30717698 0.082428
0.4818039 0.10031677 0.020474933 -0.6310673 0.021821585 0.09816529 0.023692586 -0.10126291
