model_param/model_param_best.pt (torch, 525909 bytes, 22 tensors)

enc_lstm.weight_ih_l0 f4 [400, 2]
0	0xbe12686b	-0.14297645
1	0x3e441767	0.19149552
2	0xbf735ae1	-0.95060545
3	0xbd9ed37e	-0.07755183
4	0x3d9125d9	0.07087297
5	0x3c274bfb	0.010210986
6	0xbe4bf266	-0.19916686
7	0xbdae52b3	-0.085118674
8	0x3f887fb7	1.0663975
9	0xbed271c0	-0.4110241
10	0xbd977960	-0.07396197
11	0xbe0b1ba7	-0.13584767
12	0x3ec2655b	0.37967953
13	0xbe36c3d2	-0.17848137
14	0x3afd2087	0.0019312062
15	0xbc77ea7c	-0.015131589
16	0xbeecebb3	-0.46273574
17	0x3f242288	0.6411519
18	0xbefce2c7	-0.49391767
19	0xbcacc61a	-0.021090556
20	0xbd849b24	-0.06474903
21	0x3df18273	0.11792459
22	0xbf814914	-1.0100427
23	0xbf7ef0e5	-0.99586326
24	0xbfa387e2	-1.2775843
25	0xbabe4c2c	-0.0014518551
26	0xbf0394a7	-0.513987
27	0xbd1de5ee	-0.038549356
28	0x3ec275fc	0.3798064
29	0xbf6a2451	-0.91461664
30	0xbd9137b1	-0.070907004
31	0xbde748ac	-0.11293158
32	0xbdeb3499	-0.114846416
33	0xbde37279	-0.11105818
34	0x3da0d82c	0.078537315
35	0x3e26a23e	0.16272828
36	0xbe832ee5	-0.25621715
37	0xbf6caca1	-0.9245091
38	0xbe4fe6e1	-0.20302917
39	0x3d9ad967	0.075609975
40	0x3f3f33b2	0.74688256
41	0x3ec1f2fc	0.37880695
42	0x3d3eea5c	0.04661022
43	0xbca39049	-0.019966261
44	0x3fae41c1	1.3613816
45	0xbed22f23	-0.41051587
46	0x3d8f7679	0.07005019
47	0xbde93319	-0.11386699
48	0xbf355465	-0.708319
49	0xbdf5323e	-0.119724736
50	0x3e11ef64	0.14251477
51	0x3bbfc813	0.005852708
52	0x3f8283ab	1.0196432
53	0xbe9d54ec	-0.30728853
54	0x3e9e7e5b	0.30955777
55	0xbed6bb08	-0.4193957
56	0x3e4c944e	0.19978449
57	0x3edfe618	0.43730235
58	0xbeec5162	-0.4615584
59	0xbf0a2490	-0.5396204
60	0x3f83a99e	1.0286138
61	0xbeab81e6	-0.33497542
62	0x3e377290	0.17914796
63	0xbd7ba8b2	-0.061440177
64	0xbe4ff017	-0.20306431
65	0x3e6d29f8	0.23160541
66	0xba88d872	-0.0010440482
67	0x3c9eac4f	0.019369273
68	0x3e204d47	0.15654479
69	0xbeb8b1f9	-0.36073282
70	0x3e08451c	0.13307613
71	0x3e3851ee	0.18000004
72	0xbe8771c5	-0.26453987
73	0xbdd51e7b	-0.10406204
74	0xbe03129e	-0.1280007
75	0x3e620548	0.22072327
76	0x3e21cdb7	0.1580113
77	0xbe042006	-0.12902841
78	0x3e85e74a	0.26153022
79	0xbe2900bf	-0.16504191
80	0xbe8ccd20	-0.27500248
81	0xbf238724	-0.63878083
82	0x3e77414e	0.24146006
83	0x3ecf90ec	0.40540254
84	0xbdc00689	-0.093762465
85	0x3cc1b192	0.023644242
86	0x3e23d98b	0.16000955
87	0x3f12de8d	0.57370836
88	0xbd27d558	-0.040974945
89	0x3d20acbf	0.039227244
90	0x3e7d7407	0.24751292
91	0x3ec85699	0.3912857
92	0xbc650d29	-0.013980188
93	0x3ba487af	0.0050210576
94	0xbf981de6	-1.1884124
95	0xbe91734a	-0.2840827
96	0xbf75c5e9	-0.9600511
97	0xbe916922	-0.28400522
98	0xbd374588	-0.044744045
99	0x3dcae5ba	0.09907098
100	0xbf0f8cab	-0.5607402
101	0xbea665bd	-0.32499495
102	0xbef1c39b	-0.47219548
103	0x3f4f49a0	0.8097172
104	0x3ea7d4bb	0.32779488
105	0xbec24a18	-0.37947154
106	0xbf8af9d6	-1.0857494
107	0xbe736d51	-0.2377217
108	0xbd1a7791	-0.037711684
109	0xbf01d22a	-0.5071131
110	0x3efa7bbe	0.48922533
111	0xbeb01a8e	-0.3439526
112	0xbb6465b7	-0.0034850666
113	0x3d37c11d	0.0448619
114	0xbe30e599	-0.17275085
115	0x3ee7bcd6	0.45261258
116	0x3ebb79bb	0.3661631
117	0x3f01144a	0.50421584
118	0x3ea8bdc8	0.32957292
119	0x3f7d4d70	0.98946285
120	0x3f055eda	0.52097857
121	0x3e66ee70	0.22551894
122	0xbd5856e3	-0.052817237
123	0xbf226d90	-0.6344843
124	0xbe0c5629	-0.13704742
125	0xbcf11631	-0.029429527
126	0xbe2e4ffa	-0.17022696
127	0x3e4c3235	0.19941027
128	0x3fb78552	1.4337561
129	0xbf195fa0	-0.5991154
130	0xbebdbeb4	-0.37059557
131	0xbe2eb34b	-0.17060582
132	0x3eb0089f	0.34381577
133	0xbcfcf944	-0.030880578
134	0x3dd73405	0.10507969
135	0xbe2510a9	-0.16119637
136	0x3fb8fbb6	1.4451816
137	0xbf143a5d	-0.57901555
138	0x38992305	7.3021314e-05
139	0xbbefd2fa	-0.0073188515
140	0xbcce8dcf	-0.025214104
141	0xbcde8393	-0.027162349
142	0x3f0db0c4	0.5534785
143	0x3e9fc4ca	0.31204826
144	0x3ed30308	0.4121325
145	0xbeb59d3e	-0.3547153
146	0xbf8e209d	-1.1103703
147	0x3e14709f	0.14496087
148	0x3d13b447	0.036060598
149	0x3b9181ee	0.0044405377
150	0xbeec4a21	-0.46150306
151	0xbd70f91b	-0.058831315
152	0xbdb5c294	-0.088750035
153	0xbdfd2339	-0.12360234
154	0x3e3c41dc	0.18384498
155	0x3fbcc6e7	1.47482
156	0xbf2dd4e8	-0.67902994
157	0x3cb36b12	0.021901641
158	0x3f060581	0.5235215
159	0xbbb8971d	-0.0056332485
160	0xbd15c571	-0.036565248
161	0xbe32c650	-0.17458463
162	0x3bfdd599	0.00774641
163	0xbb4f1135	-0.003159595
164	0xbf1b4e30	-0.6066618
165	0xbe8b08e8	-0.27155232
166	0xbe070bc6	-0.13188085
167	0xbe77d06d	-0.24200602
168	0x3e8e0af7	0.2774274
169	0xbea96fb2	-0.3309303
170	0xbe035d86	-0.12828645
171	0xbeb2f01a	-0.34948808
172	0xbdec7ad4	-0.11546865
173	0xbeb6b638	-0.35685897
174	0xbf0318af	-0.5120954
175	0xbf3a73bf	-0.72832865
176	0x3eb151f2	0.34632832
177	0x3cbaf651	0.022822531
178	0x3e49c27f	0.197031
179	0x3e2f2096	0.17102274
180	0xbe7ba189	-0.2457334
181	0x3da5125d	0.08060143
182	0x3ec15942	0.3776341
183	0xbf399a84	-0.725014
184	0xbe8d2161	-0.2756453
185	0xbf9700e5	-1.1797148
186	0xbe8b9e25	-0.27269092
187	0x3f6fc1da	0.9365517
188	0xbe079d59	-0.13243617
189	0x3f39ef7c	0.7263105
190	0x3c990671	0.01867983
191	0x3ca6fc33	0.02038393
192	0xbe93dba9	-0.28878525
193	0x3e7bb9ec	0.24582642
194	0xbda12b30	-0.078695655
195	0x3d92fdb6	0.07177298
196	0x3d822fc0	0.06356764
197	0xbe2a9af6	-0.16660675
198	0xbea465bf	-0.32108876
199	0xbed191f2	-0.4093166
200	0xbf9c386a	-1.2204716
201	0x3ebf8126	0.3740322
202	0x3f4aa7e6	0.7916244
203	0x3dfed498	0.12442893
204	0x3f69cc27	0.91327137
205	0x3d82e7fc	0.06391904
206	0x3e81ef2a	0.2537778
207	0xbd232ab5	-0.03983565
208	0xbdda28c5	-0.106523074
209	0x3c54543e	0.012959538
210	0xbe95eaf6	-0.29280823
211	0x3f56de38	0.8393283
212	0x3f591392	0.84795487
213	0x3f7a9f6d	0.97899514
214	0x3b099d46	0.0020998283
215	0xbcae68b2	-0.021290157
216	0xbe464707	-0.19363032
217	0x3e984963	0.2974349
218	0xbeac8b02	-0.33699805
219	0x3e04406f	0.12915204
220	0xbb23f9a5	-0.0025020626
221	0x3dd17b82	0.10228635
222	0xbdf97cef	-0.12182032
223	0x3e9c21ea	0.30494624
224	0x3ccdae33	0.025107479
225	0xbcc64a4e	-0.024205353
226	0xbe1feb3f	-0.15617083
227	0x3e99fe6b	0.30076918
228	0xbe9ed32b	-0.31020483
229	0xbea67748	-0.3251288
230	0x3d717454	0.05894883
231	0x3d3571cc	0.04429798
232	0x3ec48887	0.38385412
233	0xbf47a3f6	-0.7798456
234	0xbe4fde15	-0.20299561
235	0x3df6765d	0.12034295
236	0xbe253ac8	-0.16135705
237	0xbd527cf9	-0.051388714
238	0xbe199d11	-0.15001322
239	0xbeaa106c	-0.33215654
240	0xbeb5f139	-0.355356
241	0xbe9d3b10	-0.30709124
242	0xbec65a57	-0.387408
243	0x3dcdd01e	0.10049461
244	0xbef8cdca	-0.48594505
245	0x3e3a7795	0.1820968
246	0xbdc1a6c9	-0.0945564
247	0x3dce465d	0.100720145
248	0x3fba265f	1.454296
249	0x3d85d31a	0.06534405
250	0x3f69548a	0.9114462
251	0x3f058335	0.5215333
252	0x3e3cf5a3	0.18453078
253	0xbe299c01	-0.16563417
254	0x3e611260	0.21979666
255	0x3f5a2caf	0.8522443

enc_lstm.weight_hh_l0 f4 [400, 100]
0	0x3fa2f315	1.2730433
1	0xbee3260a	-0.4436496
2	0x3f3fda08	0.74942064
3	0x3f158753	0.58409613
4	0xbf9345ae	-1.150564
5	0xbe8870f5	-0.2664868
6	0x3e9c2b45	0.30501762
7	0x3e01adeb	0.12664
8	0x3e49fdc0	0.19725704
9	0xbd7abb9e	-0.061214082
10	0x3f3a0227	0.72659534
11	0xbf04c11d	-0.5185717
12	0x3f588343	0.8457529
13	0x3f1fcf82	0.62426007
14	0xbe5169c5	-0.20450504
15	0x3f0aba2f	0.54190344
16	0x3f5ee6e4	0.8707106
17	0xbe809c5b	-0.2511929
18	0xbf3751e8	-0.71609354
19	0x3f5b9e68	0.85788584
20	0xbe8a8548	-0.2705481
21	0xbec61c31	-0.38693383
22	0xbe09aade	-0.13444087
23	0x3fa06edc	1.2533832
24	0xbf3b678e	-0.73204887
25	0xbe93d62e	-0.28874344
26	0xbf0307e6	-0.5118393
27	0xbf1cf010	-0.61303806
28	0xbe21b659	-0.15792216
29	0xbea47b5a	-0.3212536
30	0xbf5eb020	-0.86987495
31	0x3f3b24a8	0.7310281
32	0xbf223c69	-0.6337343
33	0xbeabe760	-0.33574963
34	0xbe9cd96a	-0.30634624
35	0x3dab5400	0.08365631
36	0x3ea460db	0.32105145
37	0xbfa32acc	-1.2747436
38	0x3f3f8d6e	0.7482518
39	0xbf039caa	-0.51410925
40	0x3e3c1276	0.18366417
41	0xbf2f8e76	-0.68576753
42	0xbea09ac2	-0.3136807
43	0x3e023bd2	0.12718132
44	0xbf2eedbc	-0.68331504
45	0xbe0c8d1d	-0.13725705
46	0x3f29d6c0	0.6634331
47	0x3ed6bb15	0.41939607
48	0xbea6dc9b	-0.32590184
49	0xbf0b3387	-0.543755
50	0x3f9eb27c	1.2398219
51	0xbf017351	-0.50566584
52	0x3f38251a	0.7193161
53	0xbf2f35af	-0.6844129
54	0xbc1b469b	-0.009477283
55	0x3e8f19b5	0.279493
56	0x3eb9e318	0.3630607
57	0x3f0924e5	0.5357192
58	0x3c640a1e	0.013918428
59	0xbedaec98	-0.42758632
60	0xbd8bfa8c	-0.068348974
61	0x3e88aa5b	0.2669247
62	0x3ee27131	0.44226983
63	0x3c820210	0.015870124
64	0xbe964701	-0.29351047
65	0xbf1be7dd	-0.6090067
66	0x3e88f0a6	0.267461
67	0x3df4a97e	0.119463906
68	0x3e1ee08c	0.15515345
69	0xbd281557	-0.041035976
70	0x3ea236ae	0.31682342
71	0x3f3c5580	0.7356796
72	0x3d9af148	0.07565552
73	0x3f5bc7cc	0.8585174
74	0x3e2f6a12	0.17130306
75	0xbea22e86	-0.3167612
76	0x3f6123a1	0.8794499
77	0xbe8e1dc8	-0.27757096
78	0x3f16fe95	0.5898221
79	0xbe938bb9	-0.28817537
80	0xbea04660	-0.31303692
81	0x3d864ec2	0.065579906
82	0xbe7f7959	-0.24948634
83	0xbe9a61b9	-0.3015268
84	0xbc0f499e	-0.008745579
85	0xbed26614	-0.41093504
86	0x3dfa2141	0.12213374
87	0xbdcc1d99	-0.09966583
88	0x3ec8961e	0.3917703
89	0xbed2c357	-0.41164657
90	0xbd4d599d	-0.05013429
91	0xbec89a98	-0.39180446
92	0xbf0af50f	-0.5428018
93	0xbc58e7df	-0.013238876
94	0xbdc34c34	-0.09536019
95	0x3f373e46	0.71579397
96	0x3cb68106	0.02227832
97	0x3e0db920	0.13840151
98	0x3e525a7c	0.2054233
99	0x3d200f34	0.039077
100	0x3f807228	1.0034838
101	0xbf5222a7	-0.82084125
102	0xbec73929	-0.38910797
103	0xbe3bf48f	-0.1835501
104	0xbe98cbe0	-0.29843044
105	0x3e879077	0.26477405
106	0x3e7f351d	0.24922605
107	0xbe8364ad	-0.25662747
108	0xbf38b1c4	-0.7214625
109	0xbf9c8970	-1.2229443
110	0xbf23daa7	-0.6400551
111	0xbf0fc49f	-0.56159395
112	0xbfbdd40b	-1.4830335
113	0xbe5c0753	-0.21487169
114	0x3e8679da	0.2626484
115	0xbd6805ec	-0.056646273
116	0x3f4e4eb2	0.8058883
117	0xbdbb9f4a	-0.09161241
118	0x3eacdb1d	0.3376092
119	0x3d40dba7	0.047084477
120	0xbeab94a3	-0.33511838
121	0x3e466888	0.19375813
122	0x3eefebe1	0.4685965
123	0x3eb07f75	0.34472242
124	0x3f9127ac	1.1340232
125	0xbe98de66	-0.29857177
126	0x3ebb0a26	0.3653118
127	0x3eebf1bb	0.46082863
128	0xbf553579	-0.8328472
129	0x3e1ee54f	0.15517162
130	0x3f78b56c	0.9715183
131	0xbf23c5ce	-0.639737
132	0xbf579ff7	-0.8422846
133	0x3f589820	0.84607124
134	0x3e814c93	0.25253734
135	0xbb318680	-0.0027088225
136	0xbc9aa304	-0.01887656
137	0x3f866ac4	1.0501332
138	0x3f517a6f	0.81827444
139	0x3ffe477c	1.9865565
140	0x3f7e12ea	0.9924761
141	0x3db69db2	0.08916797
142	0x3eb7fbee	0.35934395
143	0x3d038583	0.03210975
144	0xbf2658a2	-0.6497899
145	0x3f7b567e	0.9817885
146	0x3f48a4a9	0.7837625
147	0xbf8cc801	-1.0998536
148	0xbed8a6ee	-0.42314857
149	0xbfacdb72	-1.3504469
150	0x3f3e6b2f	0.743823
151	0x3def76e3	0.11692598
152	0xbff7307e	-1.9311674
153	0xc027ed92	-2.6238751
154	0xbf93c309	-1.1543895
155	0x3dcde1da	0.100528434
156	0xbf0e8d60	-0.5568447
157	0xbf3055aa	-0.68880713
158	0x3f327bd3	0.6972019
159	0x3eb84c36	0.35995644
160	0x3f4774bc	0.779125
161	0x3fba4894	1.4553399
162	0x3e3e3cf2	0.18577936
163	0xbfb01d61	-1.3758966
164	0x3f40e4e5	0.75349265
165	0xbf2dc85e	-0.6788386
166	0xbdbff05b	-0.09372016
167	0x3f5f612d	0.87257653
168	0x3dd1ed2d	0.10250316
169	0x3f995137	1.197791
170	0xbebf7bf2	-0.3739925
171	0x3ed518e1	0.41620544
172	0x3df11050	0.117706895
173	0x3e5094c7	0.20369254
174	0xbe4a0a73	-0.19730549
175	0xbfb48ba4	-1.4105115
176	0xbf84730a	-1.0347607
177	0xbf0a321a	-0.539827
178	0x3f5db769	0.86607987
179	0xbe999dda	-0.30003244
180	0x3de8acbd	0.11361072
181	0xbfa2c9ea	-1.2717869
182	0xbe016f84	-0.12640196
183	0xbe15fc6f	-0.14647077
184	0x3d27e2ed	0.040987898
185	0xbeeff2a2	-0.46864802
186	0x3f197996	0.5995115
187	0xbf7f5884	-0.9974444
188	0x3e812164	0.25220788
189	0xbdc175fb	-0.09446331
190	0xbfd88221	-1.6914712
191	0xbe7b1488	-0.24519551
192	0xbf392c42	-0.7233316
193	0xbd86092b	-0.065447174
194	0xbe05b6c3	-0.13058
195	0xbf6e5c04	-0.93109155
196	0xbe5d6e82	-0.21624187
197	0xbdad25b9	-0.08454461
198	0xbdf66175	-0.12030307
199	0x3e99a8e5	0.3001167
200	0x3dfc1f89	0.12310702
201	0xbf0630b4	-0.52418065
202	0x3da80d03	0.08205607
203	0xbde3b757	-0.11118954
204	0xbec161a9	-0.3776982
205	0x3e46445e	0.19362018
206	0x3f0ddde5	0.5541671
207	0xbe54857c	-0.20754045
208	0x3d00fd7a	0.031491734
209	0xbf2d99c2	-0.6781274
210	0xbe30a6bc	-0.17251104
211	0x3ec9496e	0.39313835
212	0xbdb57df6	-0.08861916
213	0xbfcd9467	-1.6060914
214	0xbeaf8ec0	-0.34288597
215	0x3e8a659b	0.27030644
216	0x3ed5f479	0.4178808
217	0xbfd5e98c	-1.6711898
218	0x3e34e8c4	0.17666918
219	0x3ebf71b4	0.37391436
220	0xbe39aa2e	-0.18131325
221	0x3f012d06	0.50459325
222	0xbe57b49d	-0.21064992
223	0xbfb2e387	-1.3975686
224	0xbe85ea39	-0.2615526
225	0xbf1757e7	-0.59118503
226	0x3df3c5e4	0.11902979
227	0xbf04a915	-0.518205
228	0x3f288807	0.6583256
229	0xbf1d23a6	-0.6138252
230	0xbdd9db7c	-0.106375664
231	0x3fad462c	1.353704
232	0xbf6343da	-0.8877541
233	0x3f298654	0.66220593
234	0xbf0e597b	-0.55605286
235	0xbe81080d	-0.25201455
236	0xbd37c7a7	-0.044868138
237	0xbf38f4ce	-0.7224854
238	0xbee103c0	-0.43948174
239	0xbf6437ea	-0.8914782
240	0x40079e32	2.1190305
241	0xbd89a9de	-0.06721853
242	0xbc843280	-0.016137362
243	0x3ef53735	0.47893682
244	0xbf875f24	-1.057591
245	0x3d62d47a	0.055378415
246	0xbee8eec3	-0.4549466
247	0x3f048fdc	0.5178201
248	0xbf97269d	-1.1808659
249	0xbe568f3b	-0.20953076
250	0xbeb94604	-0.3618623
251	0x3e181c90	0.14854646
252	0x3e1e88cb	0.1548187
253	0xbea95026	-0.3306896
254	0xc03ba376	-2.9318519
255	0x3f20a9ca	0.6275908

enc_lstm.bias_ih_l0 f4 [400]
0	0xbea5479e	-0.32281202
1	0xbf250f13	-0.64476126
2	0xbf112f74	-0.5671303
3	0xbf558534	-0.83406377
4	0xbf75b176	-0.9597391
5	0xbf3e8781	-0.7442551
6	0xbf7ca149	-0.986836
7	0xbf0ac8d3	-0.54212683
8	0xbfb20880	-1.3908844
9	0xbf522ab9	-0.8209644
10	0xbf63de8e	-0.89011467
11	0xbf0a403b	-0.5400426
12	0xbf892f62	-1.0717585
13	0xbde916dc	-0.11381313
14	0xbf2068a3	-0.6265966
15	0xbe4ebd16	-0.20189318
16	0xbf2dd504	-0.6790316
17	0xbf3204c9	-0.6953855
18	0xbf57510d	-0.8410805
19	0xbf8776f5	-1.0583178
20	0xbe00d8e4	-0.12582737
21	0xbf07108b	-0.5275962
22	0x3ea6c329	0.3257077
23	0xbf7b84a6	-0.9824928
24	0xbf1fb86f	-0.623908
25	0x3cd473d7	0.025934143
26	0xbf87cb00	-1.0608826
27	0x3ef8c605	0.48588577
28	0xbf757eec	-0.9589679
29	0xbf2375a9	-0.6385141
30	0xbfb0873d	-1.3791271
31	0xbe09ea8a	-0.13468376
32	0xbf36e10e	-0.71437156
33	0xbf212641	-0.62948996
34	0xbf251946	-0.6449169
35	0xbf5cfbf0	-0.86321926
36	0xbe2ccfa3	-0.16876082
37	0xbf447735	-0.76744395
38	0xbf6340f2	-0.88770974
39	0xbfa19dd1	-1.2626287
40	0x3f1ee379	0.62065846
41	0xbf3eecef	-0.7458028
42	0xbee8daed	-0.45479527
43	0xbf0dcf1a	-0.55394137
44	0xbf43bf00	-0.7646332
45	0xbeded178	-0.43519187
46	0xbf7a0ea1	-0.9767857
47	0xbf80faac	-1.0076499
48	0x3ed27a0c	0.4110874
49	0xbf2f3fc1	-0.68456656
50	0xbf8c6e86	-1.0971229
51	0xbf6e8614	-0.93173337
52	0xbe78d5d0	-0.24300313
53	0xbf54c6d2	-0.83115876
54	0xbf4c852c	-0.79890704
55	0xbe8f2f31	-0.27965692
56	0xbf5ab702	-0.854355
57	0xbeba49eb	-0.3638452
58	0xbf6bab0b	-0.92057866
59	0xbf3ac99a	-0.7296387
60	0xbf03114c	-0.5119827
61	0xbf211394	-0.629205
62	0xbe447a1c	-0.19187206
63	0xbe867d41	-0.26267436
64	0xbf6bdd7e	-0.92134845
65	0xbf19169f	-0.5980014
66	0xbf092e75	-0.5358651
67	0xbe4201df	-0.18946026
68	0xbe9ec66d	-0.31010762
69	0xbf124246	-0.57132375
70	0xbf44cbf6	-0.7687372
71	0xbe53fa0c	-0.20700854
72	0xbe972dea	-0.29527217
73	0xbf16be09	-0.5888372
74	0xbf567b0e	-0.83781517
75	0x3be8736e	0.0070938384
76	0x3eb95f80	0.36205673
77	0xbf4d4b6f	-0.8019323
78	0xbf273198	-0.6531005
79	0xbf63aab9	-0.8893238
80	0xbedf5a7d	-0.43623725
81	0xbf49f7e1	-0.7889386
82	0xbd505818	-0.050865263
83	0xbea870d2	-0.32898575
84	0xbec2f630	-0.3807845
85	0xbe99ee45	-0.30064598
86	0x3d3403b0	0.04394883
87	0x3ecb2b8c	0.3968166
88	0xbecbf1c2	-0.39832884
89	0xbef8aa0f	-0.48567244
90	0xbf513b3b	-0.81731004
91	0xbe9899d9	-0.29804876
92	0xbf9aa0bc	-1.2080302
93	0xbf2c38dd	-0.67274266
94	0xbf22d57e	-0.63607013
95	0xbf25d4c1	-0.6477776
96	0xbf08f78b	-0.5350272
97	0xbf86235c	-1.0479541
98	0xbf367b5e	-0.71281993
99	0x3c26dbe2	0.01018426
100	0x3ee99f93	0.45629558
101	0xbf5bd97b	-0.85878724
102	0x3f4f67dd	0.8101786
103	0x3f1a72f3	0.6033165
104	0xbe4f2b6d	-0.2023141
105	0x3f96f021	1.1792032
106	0x3ee6eab6	0.45100945
107	0x3f1b53aa	0.60674536
108	0x3e591810	0.21200585
109	0x3e822a9f	0.25423142
110	0x3de39ecc	0.111142725
111	0xbf09cd99	-0.5382934
112	0x3eee094f	0.46491477
113	0xbe7ea7bf	-0.24868678
114	0xba15a20b	-0.0005708045
115	0x3ef4d372	0.4781757
116	0xbeb112af	-0.34584567
117	0x3f032c0a	0.51239073
118	0x3f38751d	0.720537
119	0x3e9e3065	0.30896297
120	0x3ee2b457	0.44278213
121	0x3f051620	0.51986885
122	0xbe71f5c9	-0.23628916
123	0xbe58002a	-0.21093813
124	0x3ef5517a	0.47913724
125	0x3f63acbd	0.8893545
126	0x3dc2c6f4	0.095106035
127	0x3ebd100a	0.369263
128	0xbf036271	-0.51322085
129	0x3e95235c	0.2912854
130	0x3ee4d02d	0.44690076
131	0x3e957585	0.29191223
132	0x3f16ee82	0.58957684
133	0x3f238262	0.63870823
134	0x3d968d76	0.073512
135	0x3ea511fd	0.32240286
136	0xbf57fdb7	-0.84371513
137	0x3e137e93	0.14403753
138	0x3e8f1860	0.27948284
139	0x3f3819ad	0.7191418
140	0xbe4ca1da	-0.19983616
141	0x3ef36a3f	0.47541997
142	0xbe9ae4cd	-0.30252686
143	0x3f21a916	0.6314863
144	0xbe2edeae	-0.17077133
145	0xbd59b774	-0.05315347
146	0x3f81159b	1.0084718
147	0x3eaef525	0.34171405
148	0xbeb5f819	-0.35540846
149	0x3f6b4949	0.919087
150	0xbf030915	-0.51185733
151	0xbed7671a	-0.42070848
152	0xbe8fe058	-0.28100848
153	0xbdd6c6e8	-0.10487157
154	0x3ea22f1f	0.31676576
155	0x3e9c70e2	0.30554873
156	0x3d58ddd3	0.052945923
157	0x3ddca197	0.10773008
158	0xbda69f2c	-0.081358284
159	0xbe958c95	-0.29208818
160	0xbf288dee	-0.6584157
161	0xbde0c9b7	-0.10975974
162	0x3f80dd53	1.0067543
163	0x3f10ded9	0.5659004
164	0x3f1d699c	0.6148927
165	0x3e4061c0	0.18787289
166	0x3d9b1420	0.07572198
167	0x3e8edeef	0.2790446
168	0x3ed1a133	0.40943298
169	0x3f4e9aae	0.8070477
170	0x3f13132d	0.57451135
171	0xbf2731f5	-0.65310603
172	0x3f0863bf	0.532772
173	0x3f0c287a	0.5474926
174	0x3e44310c	0.19159335
175	0x3eb89566	0.36051482
176	0xbf109255	-0.56473285
177	0x3ea9809f	0.33105943
178	0x3f04a838	0.5181918
179	0x3f028f74	0.5100014
180	0xbe1a2152	-0.15051773
181	0x3f5fdcaa	0.8744608
182	0xbf155497	-0.583322
183	0xbe8a8093	-0.2705122
184	0x3f06b969	0.52626663
185	0xbe9efe1e	-0.3105325
186	0x3e7c50d8	0.24640214
187	0x3ecfdeb4	0.40599597
188	0x3efa336f	0.48867366
189	0x3e5148da	0.20437947
190	0x3e02d621	0.12776996
191	0x3dbfbbf7	0.09362023
192	0xbd811acc	-0.06303939
193	0xbe97d3c9	-0.29653767
194	0x3f0bbfdb	0.54589623
195	0x3f74e3dc	0.95660186
196	0x3eb777d2	0.35833603
197	0x3f43867e	0.76377094
198	0x3f3c05eb	0.7344653
199	0x3e9e5743	0.3092595
200	0xbfa560bf	-1.292015
201	0xbe2aa0bb	-0.16662876
202	0xbcafda54	-0.021466412
203	0xbd8bc2ec	-0.06824288
204	0x3e82f80e	0.25579876
205	0xbf30d01c	-0.6906755
206	0xbe1aa9cb	-0.15103833
207	0x3e961118	0.29309916
208	0xbe521ac7	-0.20518027
209	0x3d84b458	0.0647971
210	0x3ddb5157	0.10708874
211	0xbceff8b6	-0.0292934
212	0x3f30086f	0.6876287
213	0xbe2b6a96	-0.16739878
214	0xbc5b8971	-0.013399468
215	0x3e9ddc57	0.30832168
216	0xbbe160ef	-0.0068780105
217	0x3ee77c5f	0.45212075
218	0xbf42edf8	-0.7614436
219	0x3ef271ec	0.4735254
220	0x3e44e005	0.19226082
221	0x3d886b6f	0.06661116
222	0x3fa372a6	1.2769363
223	0x3ec10eed	0.377067
224	0xbf23e8ac	-0.64026904
225	0x3e0fe346	0.14051542
226	0xbe6c0303	-0.23048024
227	0x3e7cbcbe	0.24681374
228	0xbf00463d	-0.50107175
229	0xbec08ae1	-0.37605956
230	0xbf14cfee	-0.58129776
231	0xbe10ed21	-0.14152957
232	0x3f072e23	0.52804774
233	0xbeb04b3e	-0.34432405
234	0xbd6ef952	-0.05834324
235	0xbe50b7da	-0.20382634
236	0xbdc7080e	-0.09718333
237	0xbde221eb	-0.110416256
238	0xbf32eb58	-0.69890356
239	0x3eb24822	0.34820658
240	0xbf8d434d	-1.1036164
241	0xbde1b6a1	-0.11021162
242	0xbdc2133f	-0.09476327
243	0xbf55cf79	-0.83519703
244	0x3c9dcce4	0.019262739
245	0xbda2f71f	-0.07957291
246	0xbcba8a83	-0.022771126
247	0xbe13c909	-0.14432158
248	0x3fc171d4	1.5112863
249	0x3fcc6529	1.5968372
250	0x3eda510f	0.42639968
251	0xbcd5e19b	-0.026108554
252	0x3b071d04	0.002061666
253	0xbe5a3943	-0.21310906
254	0xbe31e463	-0.17372279
255	0x3ee61702	0.4493943

enc_lstm.bias_hh_l0 f4 [400]
0	0xbea8b0e1	-0.32947448
1	0xbf388181	-0.7207261
2	0xbf057e96	-0.5214628
3	0xbf63db13	-0.89006156
4	0xbf733b14	-0.9501202
5	0xbf359cc8	-0.70942354
6	0xbf7a43cb	-0.97759694
7	0xbeef349d	-0.46719828
8	0xbfb0657c	-1.378097
9	0xbf425285	-0.75907165
10	0xbf424d7c	-0.7589948
11	0xbf367d76	-0.7128519
12	0xbf850430	-1.0391903
13	0xbdf1666b	-0.11787113
14	0xbf0c239f	-0.54741853
15	0xbe17275c	-0.14761108
16	0xbf266893	-0.6500332
17	0xbf2bbfda	-0.6708962
18	0xbf2ec804	-0.6827395
19	0xbf6684e0	-0.900465
20	0x3d02bad1	0.031916443
21	0xbf220e07	-0.63302654
22	0x3eb3963c	0.35075557
23	0xbf79db2a	-0.9760004
24	0xbf196fe0	-0.5993633
25	0x399cf9e3	0.0002994082
26	0xbf8de626	-1.1085861
27	0x3f143144	0.57887673
28	0xbf694cd6	-0.9113287
29	0xbf18a79b	-0.59630746
30	0xbfab5ba0	-1.3387337
31	0xbe4ece92	-0.20195988
32	0xbf19690b	-0.5992591
33	0xbf22fc2e	-0.63666046
34	0xbf2d7da3	-0.6776983
35	0xbf5b5af6	-0.8568567
36	0xbe23028c	-0.1591894
37	0xbf650956	-0.8946737
38	0xbf733bad	-0.95012933
39	0xbf961456	-1.1724956
40	0x3f221e0c	0.633271
41	0xbf2927d2	-0.66076386
42	0xbedcf039	-0.43152025
43	0xbee23ea0	-0.44188404
44	0xbf5cf21b	-0.86306924
45	0xbf064e61	-0.52463347
46	0xbf630308	-0.886765
47	0xbf80e013	-1.0068382
48	0x3f0f1607	0.55892986
49	0xbf2b9036	-0.67016923
50	0xbf99a8e9	-1.2004672
51	0xbf6b78e7	-0.9198136
52	0xbe69a80e	-0.22818014
53	0xbf5a1ca8	-0.85199976
54	0xbf3f3499	-0.7468963
55	0xbe550eb4	-0.2080639
56	0xbf359148	-0.70924807
57	0xbecbf08b	-0.39831957
58	0xbf6b1488	-0.91828203
59	0xbf30cd6f	-0.69063467
60	0xbefe35d0	-0.4965043
61	0xbf2db6e1	-0.67857176
62	0xbe42c3e9	-0.19020046
63	0xbe38a7d0	-0.18032765
64	0xbf67acfe	-0.9049834
65	0xbf1ffd7d	-0.6249617
66	0xbf0ba21b	-0.5454423
67	0xbe01f9d6	-0.12692961
68	0xbeb30288	-0.3496287
69	0xbf33d139	-0.70241123
70	0xbf414bdf	-0.75506395
71	0xbea7d044	-0.32776082
72	0xbedc18f0	-0.42987776
73	0xbef9f597	-0.48820183
74	0xbf417cd8	-0.7558112
75	0xbc8910bc	-0.016731612
76	0x3ea16c17	0.31527779
77	0xbf3b0ffb	-0.7307126
78	0xbf1e95ab	-0.61947125
79	0xbf54e472	-0.8316108
80	0xbeda123b	-0.42592034
81	0xbf4b009d	-0.7929781
82	0xbe4df258	-0.20111978
83	0xbea4cf70	-0.32189512
84	0xbeae5b87	-0.34054205
85	0xbe7495f1	-0.23885323
86	0x3c9da407	0.019243253
87	0x3ed1da2f	0.40986773
88	0xbec9b3b9	-0.3939493
89	0xbec1ce2f	-0.37852618
90	0xbf51a247	-0.8188824
91	0xbe499417	-0.19685398
92	0xbfa17641	-1.2614213
93	0xbf3f18b3	-0.74647063
94	0xbf519798	-0.8187194
95	0xbf1f9245	-0.62332565
96	0xbf0d3620	-0.55160713
97	0xbf8051f0	-1.0025005
98	0xbf2db7d6	-0.67858636
99	0xbc00cb62	-0.00786099
100	0x3f1975ad	0.59945184
101	0xbf54d322	-0.83134663
102	0x3f58bcb6	0.8466295
103	0x3f073ad5	0.52824146
104	0xbd84e7e8	-0.06489545
105	0x3f9e7517	1.2379483
106	0x3f070587	0.5274281
107	0x3f039532	0.5139953
108	0x3e3885e2	0.18019822
109	0x3e646770	0.22305083
110	0x3e91c861	0.2847319
111	0xbf08f3a4	-0.53496766
112	0x3ead01f7	0.33790562
113	0xbeb3b0f3	-0.3509594
114	0xbde48d8e	-0.11159812
115	0x3eb9d6d5	0.36296716
116	0xbecfb8f4	-0.40570796
117	0x3f059d7d	0.52193433
118	0x3f635b28	0.8881097
119	0x3ecad538	0.39615798
120	0x3ea7edb6	0.32798547
121	0x3ec39d86	0.38206118
122	0xbec54d28	-0.38535428
123	0xbdd95f65	-0.10613898
124	0x3ef512dc	0.4786595
125	0x3f56804e	0.8378953
126	0x3e4db2eb	0.20087783
127	0x3ef6aacf	0.48177192
128	0xbf12d937	-0.57362694
129	0x3ea143a6	0.31496924
130	0x3f00faae	0.50382507
131	0x3e814c9c	0.2525376
132	0x3f182a6b	0.59439725
133	0x3f2a8d7f	0.66622156
134	0x3d13a0e8	0.036042124
135	0x3ebb2c72	0.36557347
136	0xbf66bceb	-0.90132016
137	0x3d36edfc	0.044660553
138	0x3e6f549a	0.23372117
139	0x3f4410da	0.76588213
140	0xbe0869b3	-0.13321571
141	0x3e932770	0.28741026
142	0xbe50207b	-0.2032489
143	0x3f12a398	0.57280874
144	0xbe52e037	-0.20593344
145	0xbe2ef2be	-0.17084786
146	0x3f617fa5	0.88085395
147	0x3ee0e12d	0.43921795
148	0xbe8c1729	-0.2736142
149	0x3f3d88aa	0.7403666
150	0xbef47af3	-0.47750053
151	0xbeb49a78	-0.352741
152	0xbea75de7	-0.3268883
153	0xbe876aa0	-0.26448536
154	0x3e5642d6	0.20923933
155	0x3ebb3731	0.36565545
156	0x3e5dfea3	0.21679167
157	0x3e4abfa0	0.19799662
158	0xbda5be3c	-0.08092925
159	0xbe4ee1ef	-0.20203374
160	0xbf274118	-0.653337
161	0xbdc8cf3c	-0.09805152
162	0x3f846aca	1.034509
163	0x3ef05827	0.46942255
164	0x3f079aea	0.52970755
165	0x3e130ae1	0.14359619
166	0x3b6601bc	0.0035096249
167	0x3ebd4d8e	0.36973232
168	0x3ed43c14	0.41452086
169	0x3f334a7d	0.70035535
170	0x3f2a6c01	0.6657105
171	0xbf1c8173	-0.61135024
172	0x3f11b324	0.5691397
173	0x3effb4a8	0.49942517
174	0x3e948b36	0.2901246
175	0x3e52869d	0.20559163
176	0xbf18429e	-0.5947665
177	0x3ef519cc	0.47871244
178	0x3f23c560	0.63973045
179	0x3f037f48	0.5136609
180	0xbe894ced	-0.26816502
181	0x3f47e8c3	0.7808954
182	0xbf003c67	-0.50092167
183	0xbe9f4989	-0.3111079
184	0x3ed6c232	0.41945034
185	0xbe9679ea	-0.29389888
186	0x3e44d6af	0.1922252
187	0x3e944c57	0.28964493
188	0x3f1def38	0.61693144
189	0x3dd44e55	0.10366503
190	0x3de46636	0.11152308
191	0x3dd879bb	0.10570093
192	0x3da1ac18	0.078941524
193	0xbe4fcc87	-0.20292865
194	0x3f062c5f	0.52411455
195	0x3f5c1f15	0.8598493
196	0x3e971c56	0.29513806
197	0x3f5be36b	0.8589389
198	0x3f4ac5db	0.79208153
199	0x3ec96ec4	0.3934232
200	0xbfa517d3	-1.2897896
201	0xbe602730	-0.21889949
202	0xbd83f80e	-0.06443797
203	0xbdceb3ed	-0.10092912
204	0x3e8f606e	0.28003258
205	0xbf21a8d9	-0.63148266
206	0xbe6e3c32	-0.2326515
207	0x3e604f09	0.2190515
208	0xbeb44e2c	-0.3521589
209	0x3e0ab227	0.13544522
210	0x3e1874af	0.14888261
211	0x3932cf40	0.0001705261
212	0x3f2e86c2	0.68174374
213	0xbdbd0066	-0.092285916
214	0xbd7990dd	-0.060929168
215	0x3e9de324	0.30837357
216	0x3dd7002a	0.10498078
217	0x3ecf72c6	0.40517253
218	0xbf3259f1	-0.6966849
219	0x3ed42172	0.41431767
220	0x3deddfe4	0.116149694
221	0x3dea5ee9	0.11443884
222	0x3fa07c50	1.2537937
223	0x3e67ec9b	0.22648852
224	0xbf036003	-0.5131838
225	0x3bef99d7	0.0073120403
226	0xbe9d8c77	-0.3077123
227	0x3e93886d	0.28815022
228	0xbef1bf60	-0.4721632
229	0xbeef23aa	-0.46706897
230	0xbf090ca6	-0.53534925
231	0x3d49f4b7	0.049305644
232	0x3ef7fbfb	0.48434433
233	0xbe796100	-0.24353409
234	0xbe2f166e	-0.170984
235	0xbe6c3c9a	-0.23069993
236	0xbe09b359	-0.13447322
237	0xbca91e45	-0.020644316
238	0xbf35ea7d	-0.71060926
239	0x3e9ea287	0.30983374
240	0xbf92089e	-1.140888
241	0xbd3e52eb	-0.046465795
242	0x3b5edfc9	0.0034007898
243	0xbf7bc526	-0.983477
244	0xbd615940	-0.055016756
245	0xbe82e4bc	-0.25565135
246	0x3c305d2d	0.010764402
247	0xbdc95ebe	-0.09832524
248	0x3fbf16af	1.4928797
249	0x3fbed9b5	1.4910189
250	0x3f0c5373	0.54814833
251	0xbe3e2bb2	-0.18571356
252	0x3cb097b1	0.021556707
253	0xbdf8dd07	-0.121515326
254	0xbe179ce7	-0.14805947
255	0x3f04c757	0.5186667

enc_lstm.weight_ih_l0_reverse f4 [400, 2]
0	0x3dfa0d0a	0.12209518
1	0x3e8b4c7a	0.27206784
2	0x3fec3b4e	1.8455598
3	0xbf9f31a4	-1.2437024
4	0xbfd062d5	-1.6280161
5	0xbd9261a3	-0.07147529
6	0x3d68bfaf	0.05682343
7	0xbcb35258	-0.02188985
8	0x3fc4a6cf	1.5363406
9	0x3f067756	0.5252584
10	0x3f0886ed	0.5333088
11	0x3f18033e	0.5937995
12	0xbf617895	-0.8807462
13	0x3f862fab	1.0483297
14	0xbf1eb658	-0.61996984
15	0xc054f598	-3.3274899
16	0x3ee7cc88	0.45273232
17	0xbf1c53d3	-0.61065406
18	0x3eb2b6c7	0.34905073
19	0xbde1a55d	-0.11017869
20	0xbe383aa2	-0.17991117
21	0x3e34bb3e	0.17649552
22	0x3effe02f	0.49975726
23	0x3f88a73a	1.0676033
24	0x3fd244e9	1.642728
25	0x3eb18041	0.34668162
26	0x3ebadea0	0.36497974
27	0x3e8946b8	0.26811767
28	0xbfbcc8da	-1.4748795
29	0xbf093522	-0.535967
30	0xbe9e2e67	-0.30894777
31	0x3debabea	0.115073994
32	0xbcebaa9e	-0.02876788
33	0x3eb15d6d	0.3464159
34	0x3e8c2266	0.27369994
35	0xbcfdfb0a	-0.031003494
36	0x3ee866fd	0.45391074
37	0xbe9622e3	-0.2932349
38	0xbfefbc5e	-1.872936
39	0xbf517048	-0.8181195
40	0x3f47e71a	0.7808701
41	0xbe5a7351	-0.21333052
42	0x3fc03419	1.5015899
43	0xbe9beeb2	-0.30455548
44	0x3dd909ee	0.10597597
45	0xbf30be9e	-0.6904086
46	0x3e619fa1	0.2203355
47	0xbec73fa7	-0.3891575
48	0xbe06a550	-0.13148999
49	0x3d8e7bbd	0.06957195
50	0xbed16ee3	-0.40904912
51	0x3f6c63d4	0.92339826
52	0xbe922a4f	-0.28547904
53	0xbcd93bdb	-0.0265178
54	0x3fa651fc	1.299377
55	0xbfc22507	-1.516755
56	0xbeb3b051	-0.35095456
57	0x3f0911b9	0.5354267
58	0xbfe0e9eb	-1.7571386
59	0xbf0e4e76	-0.5558847
60	0x401882ca	2.3829827
61	0xbf9392c6	-1.1529167
62	0xbe295df2	-0.16539744
63	0xbe12cf45	-0.1433688
64	0xbe364271	-0.17798783
65	0xbf396f80	-0.7243576
66	0xbf9ace19	-1.2094146
67	0x3f90b25b	1.130443
68	0xbf879c55	-1.0594584
69	0xbfa9c129	-1.3262073
70	0xbf92cc66	-1.1468627
71	0x3fba3735	1.4548098
72	0xbe9ae26c	-0.3025087
73	0xbeb724b2	-0.35770184
74	0xbe4d1467	-0.20027314
75	0xbe1e9ce3	-0.15489535
76	0xbe29bf35	-0.16576846
77	0xc0519035	-3.2744267
78	0x3f8e0717	1.1095914
79	0xbfdaad84	-1.7084203
80	0xbfac5b19	-1.3465301
81	0xbf788d38	-0.9709048
82	0xbc87b7c8	-0.016567126
83	0xbfb105f3	-1.382994
84	0x3f0d887b	0.5528638
85	0xbead48e8	-0.33844686
86	0x3d5dfaa8	0.054194123
87	0x3ed0f000	0.40808105
88	0x3f167f9c	0.58788466
89	0x40045537	2.067701
90	0x3ea50e63	0.3223754
91	0x3dcd3b70	0.100211024
92	0xbf98bbff	-1.1932372
93	0xbd2af243	-0.041734945
94	0xbd7fcc4d	-0.062450696
95	0xbee80c5f	-0.45321938
96	0x3ee7bb0e	0.452599
97	0xbe4d798a	-0.20065895
98	0xbf9c042e	-1.2188776
99	0x3f4c2f5d	0.7975977
100	0x3f80177e	1.0007169
101	0xbe593f6d	-0.21215601
102	0xbe3cb8a7	-0.18429814
103	0xbf0c24a8	-0.54743433
104	0x3eec96ea	0.46208888
105	0xbda6b91f	-0.08140778
106	0x3e87aa45	0.26497093
107	0xbf599781	-0.849968
108	0x3e8a1594	0.26969588
109	0xbe43ba33	-0.19113998
110	0xbf86589b	-1.049579
111	0x3e8df2c7	0.27724287
112	0x3f507da7	0.8144173
113	0x3f1a2011	0.6020518
114	0x3d6452e5	0.055743117
115	0x3e2750c7	0.16339408
116	0x3cfd7788	0.030940786
117	0x3d5dd70f	0.054160174
118	0xbe4e1b78	-0.20127666
119	0x3ead2e99	0.33824614
120	0x3f00c677	0.50302833
121	0x3c3d1aa3	0.011541995
122	0x3eee7529	0.4657376
123	0xbf5949a7	-0.8487801
124	0x40432ee7	3.0497377
125	0x3ee91ebe	0.45531267
126	0xbf0de6e5	-0.5543044
127	0x3fb6aead	1.4272057
128	0x3eec105d	0.46106234
129	0xbeacb3cf	-0.33730933
130	0x3eadad55	0.33921304
131	0xbfebf18c	-1.8433089
132	0x3e137393	0.14399557
133	0x3e03f074	0.12884694
134	0xbf94b529	-1.1617786
135	0xc001088c	-2.0161467
136	0x3ddf53a5	0.10904626
137	0x3e79934a	0.24372593
138	0x3ec703ce	0.3887009
139	0x3dfeac39	0.124351926
140	0xbdd6021e	-0.104496226
141	0xbe4ed0e3	-0.20196871
142	0x3eeab5e2	0.4584189
143	0xbfa4c626	-1.287297
144	0x3fac8a1e	1.347965
145	0x3e1f292e	0.15543053
146	0x3e9819cb	0.29707178
147	0xbeda2ac5	-0.42610756
148	0xbfa656a4	-1.2995191
149	0xbfc67514	-1.550448
150	0x3ecfdb99	0.40597227
151	0x3f12f41d	0.5740374
152	0x3e83833b	0.25686058
153	0xbfa046d0	-1.252161
154	0x3fad0931	1.351843
155	0x3e2260a4	0.15857178
156	0x3f748b8c	0.9552543
157	0xbf0d71cb	-0.5525176
158	0x3fe42210	1.7822895
159	0x3f870d40	1.0550919
160	0x3d3384ef	0.043827947
161	0x3e95f93d	0.29291716
162	0xbd02aa25	-0.031900544
163	0x3e21c425	0.1579748
164	0x3e977f9a	0.2958954
165	0x3edd0ce7	0.43173906
166	0x3fabe21d	1.3428379
167	0xbf7e19f5	-0.9925836
168	0x3f7c86da	0.9864327
169	0x3f52aebf	0.8229789
170	0x3ec59487	0.3858988
171	0xbd40232d	-0.046908546
172	0xbeec9d84	-0.46213925
173	0x3f146f87	0.5798268
174	0xc021eb4a	-2.529986
175	0xbc88e644	-0.016711362
176	0x3e406438	0.1878823
177	0xbe805ab8	-0.25069213
178	0xbf9457db	-1.1589311
179	0x3fa07c96	1.2538021
180	0x3f5cbdeb	0.8622729
181	0xbf2ea298	-0.6821685
182	0x3ee52640	0.44755745
183	0xbe22f3f3	-0.15913372
184	0xbebc7b9e	-0.36813062
185	0x3d001195	0.031266768
186	0xbe37c5c2	-0.17946532
187	0x3e96a6ed	0.2942423
188	0xbf426a20	-0.75943184
189	0xbed64350	-0.4184823
190	0xbee0caa3	-0.439046
191	0x3e20cf63	0.15704112
192	0x3f4191b8	0.75612974
193	0xbe4bafa3	-0.19891219
194	0x3f19c08c	0.6005943
195	0x3d9352d0	0.071935296
196	0x3f83f021	1.0307657
197	0xbf210b42	-0.62907803
198	0x3e867dad	0.26267758
199	0xbfba67ed	-1.4562966
200	0xbb7f7d33	-0.0038984537
201	0x3d92a00a	0.07159431
202	0xbc3fd98d	-0.011709583
203	0x3d81d00f	0.06338512
204	0x3bcffb00	0.00634706
205	0x3d3d6b5a	0.046244957
206	0xbc66121a	-0.014042402
207	0xbcd53187	-0.026024593
208	0xbdb0cefd	-0.0863323
209	0xbda9c170	-0.082888484
210	0xbcab0a27	-0.020878864
211	0x3d68f223	0.056871545
212	0xbd5ee43d	-0.054416884
213	0xbced3a3a	-0.028958429
214	0xbcd06a07	-0.025441183
215	0xbce39bc7	-0.027784241
216	0xbd6cbe70	-0.057798803
217	0xbc47de33	-0.0121989725
218	0x3d141c6a	0.03615991
219	0x3d2e99e0	0.042627215
220	0xbd89c15d	-0.06726334
221	0x3d252797	0.04032096
222	0xbc0f3cf3	-0.008742559
223	0x3da08963	0.078387044
224	0x3d6ed380	0.05830717
225	0x3c2d90a7	0.01059357
226	0x3c832ac0	0.016011596
227	0xbd8dd74d	-0.06925831
228	0x3dcad908	0.09904677
229	0xbd3c2413	-0.04593284
230	0xbc81d513	-0.015848672
231	0xbc53d340	-0.012928784
232	0x3d2e7337	0.042590346
233	0xbd093ced	-0.03350537
234	0xbd9c5500	-0.076334
235	0xbdbbc24f	-0.09167921
236	0x3d87a86d	0.066239215
237	0x3d01371d	0.0315467
238	0xbdc64cb2	-0.09682597
239	0xbd8a07f5	-0.06739799
240	0xbbb7cb4d	-0.005608952
241	0xbd87befa	-0.06628223
242	0x3c5b9a33	0.013403463
243	0x3ce64a40	0.028111577
244	0xbcb69bfa	-0.022291172
245	0xbd5fb960	-0.054620147
246	0xbcba0427	-0.022707058
247	0xbdbbaee8	-0.0916422
248	0x3d292ef3	0.04130454
249	0x3c0c85b3	0.008576798
250	0xbcb1ae07	-0.021689428
251	0xbd0f078a	-0.0349193
252	0xbdae24c0	-0.08503103
253	0xbc95d9a7	-0.018292261
254	0x3d00b777	0.031424966
255	0x3d61a9bd	0.055093516

enc_lstm.weight_hh_l0_reverse f4 [400, 100]
0	0xbdb68ae7	-0.08913212
1	0xbcb3b127	-0.021935059
2	0xbd52a1d7	-0.051423874
3	0x3db46ab2	0.08809413
4	0x3da1f465	0.07907943
5	0x3d13a4b3	0.03604574
6	0x3d338423	0.043827187
7	0xbcfbe553	-0.030748999
8	0xbd2c71c0	-0.042100668
9	0x3c2e8273	0.010651219
10	0x3cf893cd	0.030343914
11	0x3b962880	0.0045824647
12	0xbd86db75	-0.06584827
13	0x3d8b3e17	0.06798952
14	0x3d85f85f	0.06541514
15	0xbd2731f0	-0.04081911
16	0xbb1854cd	-0.0023243905
17	0xbda3794b	-0.07982119
18	0xbdac0bbd	-0.084006764
19	0x3b019700	0.001977384
20	0x3d900ec8	0.07034069
21	0x3d65afcd	0.05607586
22	0xbdbb2250	-0.09137404
23	0xbd579850	-0.05263549
24	0xbc861ae7	-0.01637025
25	0xbcfeccc0	-0.031103492
26	0x3d6798ba	0.056542136
27	0xbd7c7633	-0.06163616
28	0xbda68593	-0.08130946
29	0xbd98441f	-0.07434868
30	0xbc9c7f73	-0.019103741
31	0xbd6d20f3	-0.05789275
32	0xb9058000	-0.00012731552
33	0xbb7d6fcd	-0.0038671375
34	0x3d3c582a	0.045982517
35	0x3dbbfcc5	0.09179071
36	0x3b671a9a	0.0035263659
37	0xbd60046d	-0.05469172
38	0x3cf293e7	0.029611541
39	0x3da84267	0.0821579
40	0xbc82bcc7	-0.015959157
41	0x3d4909da	0.04908166
42	0xbd132853	-0.035927128
43	0x3b646600	0.0034850836
44	0x3d87d230	0.06631887
45	0x3d21fb00	0.039546013
46	0x3d54512a	0.051835217
47	0x3db369ed	0.08760438
48	0xbc67e6da	-0.01415416
49	0x3d5f449d	0.054508794
50	0x3c3eeb0d	0.01165272
51	0x3d09c497	0.03363475
52	0xbd744347	-0.059634473
53	0x3d99f628	0.07517654
54	0x3daeb438	0.08530468
55	0x3dafdc27	0.085869126
56	0x3d133add	0.03594481
57	0x3d85140b	0.064979635
58	0x3d8e6710	0.06953251
59	0xbd3595d7	-0.04433235
60	0x3d764a83	0.060129654
61	0x3dc2518a	0.094882086
62	0xbbd35d4d	-0.0064503313
63	0xbd6f810a	-0.05847267
64	0x3ccb8ac0	0.024846435
65	0x3c8225e7	0.015887214
66	0xbd8b3165	-0.06796531
67	0x3da1bffa	0.07897945
68	0x3c861393	0.016366756
69	0x3d2ef1ba	0.042710997
70	0x3dc0aefb	0.09408375
71	0xbdb691c3	-0.089145206
72	0x3d14733d	0.036242712
73	0xbd668d20	-0.05628693
74	0x3c1ce40d	0.009575856
75	0x3d11f52d	0.03563421
76	0xbc826060	-0.015915096
77	0xbdbb901b	-0.09158345
78	0xbd9006a3	-0.07032516
79	0x3bde8780	0.006791055
80	0xbda5dab5	-0.08098356
81	0x3d7da573	0.061925363
82	0x3cd7e5ad	0.026354635
83	0xbd11d377	-0.03560206
84	0xbd5c4e1a	-0.05378542
85	0x3ca1224d	0.019669676
86	0x3ccb53b3	0.024820184
87	0x3c82e52d	0.01597842
88	0xbdb0bac0	-0.0862937
89	0xbdcaa620	-0.09894967
90	0x3d12fa73	0.03588338
91	0x3d37d487	0.044880416
92	0x39e784cd	0.00044158698
93	0xbc79a127	-0.015236176
94	0x3c8acead	0.016944254
95	0x3da31bf7	0.07964318
96	0xbdb3467a	-0.08753677
97	0xbdbc9f32	-0.092100516
98	0x3c9fc06d	0.019500935
99	0x3dbc61f3	0.0919837
100	0xbda1cb0a	-0.07900055
101	0x3d413b70	0.047175825
102	0xbd826e02	-0.063686386
103	0xbdc6a4e7	-0.096994214
104	0x3d601413	0.054706644
105	0x3d752d0a	0.059857406
106	0xbbfcc5cd	-0.0077140094
107	0xbc83b880	-0.016079187
108	0x3d63bbe0	0.055599093
109	0xbd027c6a	-0.03185693
110	0x3d0fa677	0.035070863
111	0x3d091bbd	0.03347372
112	0xbd81e25b	-0.06342002
113	0xbd82f53b	-0.0639443
114	0x3d96423b	0.07336851
115	0xbd62631d	-0.055270303
116	0x3d4ee6f0	0.050513208
117	0xbd2a7750	-0.04161769
118	0xbd10a1ea	-0.035310663
119	0x3ced724d	0.028985167
120	0xbc7ca827	-0.01542095
121	0x3bf74a80	0.007546723
122	0x3d92fc93	0.07177081
123	0x3c6d540d	0.014485371
124	0x3d1cfe20	0.03832829
125	0x3c97cb40	0.018529534
126	0x3c5a5f33	0.013328361
127	0x3d537f1d	0.051634897
128	0x3dc88420	0.09790826
129	0xbd7771b7	-0.06041118
130	0x3dc81b35	0.09770814
131	0xbd8acfa0	-0.067778826
132	0x3d964af7	0.07338517
133	0xbc826be7	-0.015920592
134	0x3d991cfd	0.07476232
135	0x3d9f7f03	0.077878974
136	0x3d47d523	0.048787247
137	0x3d4eeaba	0.05051682
138	0xbcd54600	-0.026034355
139	0xbd71e19a	-0.05905304
140	0xbdc00008	-0.09375006
141	0x3d162ca7	0.036663678
142	0xbd798a5a	-0.060922958
143	0xbc8dd033	-0.017311191
144	0xbd9403bb	-0.07227274
145	0xbdb3dd5d	-0.08782456
146	0xbdc237b0	-0.09483278
147	0x3d9f5870	0.0778054
148	0x3b332bcd	0.002733934
149	0xbdcbb2e2	-0.099462286
150	0xbc9cdfb3	-0.019149637
151	0xbc6568cd	-0.014002037
152	0x3c16fa5a	0.009214962
153	0x3caffcc0	0.021482825
154	0xbd735077	-0.05940291
155	0x3d93b320	0.072119
156	0xbd5e53b3	-0.05427904
157	0xbc2aa40d	-0.010415089
158	0xbd65348a	-0.05595831
159	0xbdb08427	-0.08618956
160	0xbc91db5a	-0.01780479
161	0xbd628eb7	-0.055311885
162	0x3d80c257	0.062870674
163	0xbc055a8d	-0.008139265
164	0x3d1fd730	0.03902358
165	0xbd0fc4e0	-0.035099864
166	0xbc7a82e7	-0.015289999
167	0xbdc4e4fd	-0.096139885
168	0x3d657c97	0.05602702
169	0xbc262333	-0.010140228
170	0xbced1d07	-0.028944505
171	0x3d8cdbd7	0.068778686
172	0x3b761967	0.0037551762
173	0x3dbec902	0.09315683
174	0x3cf04dba	0.029333938
175	0x3c9fcf2d	0.019507969
176	0x3d2f5f40	0.042815447
177	0xbd5547f7	-0.052070584
178	0x3d18a3da	0.037265636
179	0xbc0aa473	-0.008462059
180	0xbc6150da	-0.013752187
181	0xbdb0417a	-0.08606239
182	0x3cca710d	0.02471211
183	0xbcbfbfba	-0.023406852
184	0x3ce9a907	0.028522981
185	0xbd9e6f3f	-0.07736062
186	0x3cdf9960	0.027294815
187	0x3d9e2ca8	0.07723361
188	0xb9528ccd	-0.00020079613
189	0x3db6fe7f	0.0893526
190	0xbc8e7f0d	-0.017394567
191	0xbd8ac2d8	-0.06775445
192	0xbd8dd9d7	-0.06926315
193	0xbdc6721a	-0.09689732
194	0xbceb5447	-0.02872671
195	0x3cc2f720	0.023799479
196	0x3d7e147a	0.062031247
197	0xbd267a23	-0.040643822
198	0x3d961a33	0.07329216
199	0x3d5967bd	0.05307745
200	0x3d322c57	0.043499317
201	0x3cf3c693	0.029757774
202	0x3d1d72a3	0.038439404
203	0x3db70497	0.08936422
204	0xbd4ba300	-0.049715996
205	0x3d5549e3	0.052072417
206	0xbd201690	-0.039084017
207	0xbc3b895a	-0.011446321
208	0x3dcb5af0	0.09929454
209	0x3d855b4a	0.06511553
210	0xbd1dba90	-0.038507998
211	0xbd4ce77d	-0.050025452
212	0xbcbb2c80	-0.022848368
213	0xbc3969cd	-0.011316729
214	0x3ca6b73a	0.020351041
215	0xbc0304da	-0.007996762
216	0x3d62286d	0.055214334
217	0xbcfe23d3	-0.031022942
218	0xbdb0bf10	-0.08630192
219	0x3d1df7ad	0.03856628
220	0x3d065f70	0.03280586
221	0xbd3d8c3a	-0.04627631
222	0xbb716167	-0.0036831738
223	0x3b287b9a	0.0025708438
224	0xbc0ce38d	-0.008599174
225	0xbdb1ec98	-0.08687705
226	0x3dc67a42	0.096912876
227	0xbd82f98a	-0.06395252
228	0x3ce9eda7	0.028555704
229	0xbd7a6daa	-0.06113974
230	0xbd11cf73	-0.03559823
231	0x3dba5a07	0.090992026
232	0xbcd7b367	-0.026330663
233	0x3d89f94b	0.06737002
234	0x3dbebdc0	0.09313536
235	0x3d41d9fa	0.04732702
236	0xbd3df613	-0.046377253
237	0x3d89d4a2	0.067300096
238	0xbda9122d	-0.0825542
239	0xba0fac00	-0.0005480647
240	0xbdc03535	-0.093851484
241	0xbdbed932	-0.093187705
242	0xbd2ca7dd	-0.042152274
243	0xbd8104ba	-0.0629973
244	0xbc0f32f3	-0.008740175
245	0xbd78170d	-0.060568858
246	0xbdca239b	-0.098700725
247	0xbd680757	-0.056647625
248	0x3ccb09a0	0.024784863
249	0xbd10acfd	-0.035321224
250	0xbcef4fc0	-0.029212832
251	0xbdaab613	-0.08335509
252	0xbdc7bd8f	-0.09752952
253	0x3d24c8c0	0.040230513
254	0x3dc86625	0.097851075
255	0x3d0d1433	0.03444309

enc_lstm.bias_ih_l0_reverse f4 [400]
0	0xbfe76ea6	-1.8080642
1	0xc035053b	-2.8284442
2	0xc08a2dda	-4.318097
3	0xbffc8cc0	-1.9730453
4	0xc0524c9b	-3.2859256
5	0xc04ee3bf	-3.2326505
6	0xc0861917	-4.1905627
7	0xc05242e4	-3.2853327
8	0xc03762d1	-2.8654063
9	0xbfb32931	-1.3996946
10	0xbfdb6462	-1.7140009
11	0xc0478250	-3.1173286
12	0xc014c7a6	-2.3246856
13	0xc00c993a	-2.1968522
14	0xc081e0a8	-4.058674
15	0xc00f9651	-2.2435496
16	0xc02f3eeb	-2.7382152
17	0xbff7261e	-1.9308507
18	0xc002985b	-2.040549
19	0xc0388280	-2.882965
20	0xc01f99dd	-2.493766
21	0xc02ff508	-2.7493305
22	0xc014375e	-2.3158793
23	0xc01c0ed9	-2.4384062
24	0xc0073728	-2.1127415
25	0xc00399b1	-2.0562556
26	0xc02de850	-2.7173042
27	0xc0220f59	-2.5321867
28	0xc075ab4c	-3.8385801
29	0xbf975040	-1.1821365
30	0xbfa9bc4f	-1.3260592
31	0xc0108e35	-2.2586796
32	0xc03972e8	-2.8976383
33	0xc06e30f1	-3.7217371
34	0xc00347ea	-2.0512643
35	0xc0087360	-2.132042
36	0xc0631dce	-3.5486941
37	0xc03d9d8d	-2.9627411
38	0xc032dbe7	-2.7946718
39	0xc01731ec	-2.362422
40	0xc04ae775	-3.170377
41	0xc066c23b	-3.605605
42	0xbff7ca77	-1.9358662
43	0xc0242901	-2.5650027
44	0xbfe10a9a	-1.758136
45	0xc018476e	-2.3793597
46	0xc09788bc	-4.735441
47	0xc04c3750	-3.190876
48	0xbf4776cd	-0.7791565
49	0xc09332d6	-4.5999556
50	0xc0362c3a	-2.8464494
51	0xc01a4ae2	-2.4108205
52	0xbf5283ae	-0.8223218
53	0xc0875372	-4.228936
54	0xbf7288b4	-0.9473984
55	0xc088d4ae	-4.275962
56	0xc0047960	-2.0699081
57	0xbfdd74f9	-1.7301322
58	0xc02bad1e	-2.6824412
59	0xc050371a	-3.2533631
60	0xc01a93b2	-2.4152646
61	0xc039d181	-2.903412
62	0xbfcb1f43	-1.5868915
63	0xc07e7b14	-3.976262
64	0xc0155897	-2.333532
65	0xbfa52161	-1.2900811
66	0xbfbbbaa5	-1.4666334
67	0xc0316477	-2.771757
68	0xc0281ceb	-2.626765
69	0xbfc40786	-1.5314796
70	0xc05f13c5	-3.4855816
71	0xc053b511	-3.3079264
72	0xc05cea46	-3.451799
73	0xc05b18f3	-3.4233978
74	0xc02d823e	-2.7110744
75	0xc05f09b5	-3.4849675
76	0xc070bb80	-3.761444
77	0xc0503ac7	-3.2535875
78	0xc05c4516	-3.4417167
79	0xc01e824f	-2.4767034
80	0xc0103bd5	-2.2536519
81	0xc0273eab	-2.6132
82	0xc0680b46	-3.625688
83	0xc03db1cf	-2.9639776
84	0xc083e6f3	-4.121942
85	0xbfdf9444	-1.7467122
86	0xc05769fb	-3.3658435
87	0xc01e6411	-2.4748576
88	0xbfc8b452	-1.5680029
89	0xbfd177f1	-1.6364728
90	0xc0423624	-3.0345545
91	0xbfdf712f	-1.7456416
92	0xc063d26d	-3.5597184
93	0xc0207c8d	-2.507602
94	0xc089233d	-4.2855515
95	0xc0307c73	-2.7575958
96	0xc041dbb7	-3.0290353
97	0xc0797eec	-3.8983717
98	0xc0567d77	-3.3514078
99	0xc076202f	-3.8457143
100	0xbd61e913	-0.055153918
101	0x3d0c981a	0.034324743
102	0xbdae8453	-0.085213326
103	0xbd8f276d	-0.06989942
104	0xbcd073fa	-0.025445927
105	0x3dc113a3	0.094275735
106	0x3d35fb4d	0.044429112
107	0x3dc9fd83	0.09862807
108	0xbda0f6db	-0.07859584
109	0x3d501e70	0.050810277
110	0xbd980713	-0.07423224
111	0x3c969667	0.018382264
112	0x3d1f0b43	0.0388291
113	0x3d1ce9d3	0.03830893
114	0xbdb1e718	-0.08686656
115	0xbcb70f6d	-0.022346223
116	0x3d0517f0	0.03249353
117	0xbd75e053	-0.060028385
118	0xbd05c747	-0.03266075
119	0xbd5412b3	-0.051775645
120	0x3bca00b3	0.006164634
121	0xbcec281a	-0.028827716
122	0xbd8fdb63	-0.070242666
123	0xbd85a33f	-0.06525277
124	0x3d3542f7	0.044253316
125	0x3dc41fbb	0.095763646
126	0x3cb34567	0.02188368
127	0x3d26503d	0.040603865
128	0xbcfec433	-0.031099414
129	0xbd5386da	-0.051642276
130	0xbd33690a	-0.043801345
131	0xbd1e9c47	-0.038723256
132	0x3c996fa7	0.018729998
133	0xbd873638	-0.06602138
134	0xbd227cc0	-0.039669752
135	0x3dc176c2	0.094464794
136	0xbd294f93	-0.041335654
137	0xbca1ca40	-0.01974976
138	0x3d94be2a	0.072628334
139	0xbaafe79a	-0.0013420463
140	0x3da3e307	0.080022864
141	0x3d593397	0.053027716
142	0x3c5217e7	0.012823082
143	0xbbbac080	-0.0056992173
144	0xbd20a5d0	-0.03922063
145	0x3da0bbab	0.07848295
146	0xbc19f473	-0.00939666
147	0xbd348aa0	-0.044077516
148	0xbdaa74b0	-0.083230376
149	0x3c71284d	0.014719081
150	0x3db22de7	0.087001614
151	0x3db2f94b	0.08738955
152	0xbd6feba7	-0.058574345
153	0x3c573667	0.013135529
154	0xbd9c7403	-0.07639315
155	0x3c521f67	0.01282487
156	0xbcc2186d	-0.023693288
157	0x3d8a3f7b	0.06750389
158	0xbd910ef0	-0.07082927
159	0x3cd5a6d3	0.026080525
160	0x3d8f997d	0.070116974
161	0xbd507bad	-0.050899196
162	0x3ced21f3	0.028946852
163	0x3dcbff73	0.099608324
164	0x3dba6fdb	0.09103366
165	0x3d4f9b9d	0.050685514
166	0x3db3775f	0.087630026
167	0xbc8a0ded	-0.016852343
168	0xbcea3180	-0.028588057
169	0xbdc43d1d	-0.09581969
170	0xbd0fac13	-0.035076212
171	0xbd8eef48	-0.06979233
172	0x3d6aeb2a	0.057353176
173	0x3d1b4da0	0.037915826
174	0x3bf3c733	0.007439518
175	0xbcf623fa	-0.030046452
176	0x3cc04460	0.023470104
177	0xbd0a8ee0	-0.033827662
178	0x3d61070a	0.054938354
179	0x3da5ceab	0.080960594
180	0xbd1f3013	-0.038864207
181	0x3cbc9cc7	0.023023976
182	0x3c8e5ae0	0.017377317
183	0xbd92a39a	-0.07160111
184	0xbc04e39a	-0.008110905
185	0xbd886d52	-0.06661476
186	0xbd1688b0	-0.03675145
187	0xbb75bdcd	-0.0037497163
188	0x3cceaa6d	0.02522775
189	0x3cc464cd	0.023973847
190	0xbd70a787	-0.058753517
191	0xbd761053	-0.06007416
192	0xbce76307	-0.028245462
193	0xbd49c047	-0.049255636
194	0xbd0a9e73	-0.033842515
195	0x3d859167	0.06521874
196	0xbcf41087	-0.029793037
197	0xbd3480cd	-0.044068146
198	0xbd164793	-0.036689352
199	0xbd3fd053	-0.046829533
200	0x3d2fb07d	0.04289292
201	0xbd46cce6	-0.04853525
202	0xbe19dceb	-0.1502568
203	0x3ce8b5dd	0.028407032
204	0x3d77f983	0.060540687
205	0x3e49d14c	0.19708747
206	0xbd3cc994	-0.046090677
207	0xbea496ff	-0.3214645
208	0xbcd7a715	-0.026324788
209	0x3e13ee09	0.14446272
210	0xbd4fdead	-0.05074947
211	0x3e3a08a8	0.18167365
212	0xbdc87c66	-0.09789352
213	0xbd4a7216	-0.049425207
214	0x3f1532cb	0.5828063
215	0xbd81cc37	-0.06337779
216	0xbd0b9905	-0.034081478
217	0x3cd75add	0.026288444
218	0x3d13822b	0.03601281
219	0xbd0dd169	-0.034623537
220	0x3d9a3f06	0.07531552
221	0xbcc9bf7a	-0.024627436
222	0x3cd618ff	0.026134966
223	0xbe29d481	-0.1658497
224	0xb9c549fb	-0.00037629888
225	0xbbc30cb5	-0.0059524425
226	0x3c99672c	0.018725954
227	0xbd66295d	-0.05619179
228	0xbd4fe4d0	-0.050755322
229	0xbd1086d5	-0.035284836
230	0xbc025174	-0.00795399
231	0x3d466f86	0.0484462
232	0x3af73555	0.0018860499
233	0xbd602752	-0.054725
234	0x3d6e0a76	0.058115445
235	0x3c3eecd1	0.011653141
236	0xbf212adc	-0.62956023
237	0xbd1c1cfa	-0.03811357
238	0x3e2499e0	0.16074324
239	0xbd15e80a	-0.036598243
240	0xbc91b1d8	-0.017784998
241	0x3e14f09f	0.14544915
242	0xbd9fa764	-0.07795599
243	0xbc7caa66	-0.0154214855
244	0x3d92e516	0.07172601
245	0x3bf2aaf5	0.0074056336
246	0x3d8045ec	0.062633365
247	0xbabf9673	-0.0014616981
248	0x3eca2a87	0.3948557
249	0x3e84fc2c	0.25973642
250	0x3ad8e567	0.0016547859
251	0x3c3dbd92	0.011580842
252	0xbde20341	-0.11035777
253	0xbfbae972	-1.4602492
254	0xbc17baf0	-0.009260878
255	0xbd551aaa	-0.052027382
